{"case": "hlo", "tag": "smolyak_single_integral", "dialect": "stablehlo", "hlo": "module @jit__compiled_single_integral attributes {mhlo.num_partitions = 1 : i32, mhlo.num_replicas = 1 : i32} {\n  func.func public @main(%arg0: tensor<4xf32>, %arg1: tensor<68xf32>, %arg2: tensor<68xf32>, %arg3: tensor<6xi64>, %arg4: tensor<6xi64>, %arg5: tensor<15x4xi32>) -> (tensor<1xf32> {jax.result_info = \"result\"}) {\n    %0 = call @_compiled_single_integral(%arg0, %arg1, %arg2, %arg3, %arg4, %arg5) : (tensor<4xf32>, tensor<68xf32>, tensor<68xf32>, tensor<6xi64>, tensor<6xi64>, tensor<15x4xi32>) -> tensor<1xf32>\n    return %0 : tensor<1xf32>\n  }\n  func.func private @_compiled_single_integral(%arg0: tensor<4xf32>, %arg1: tensor<68xf32>, %arg2: tensor<68xf32>, %arg3: tensor<6xi64>, %arg4: tensor<6xi64>, %arg5: tensor<15x4xi32>) -> tensor<1xf32> {\n    %cst = stablehlo.constant dense<0.000000e+00> : tensor<f32>\n    %0 = stablehlo.broadcast_in_dim %cst, dims = [] : (tensor<f32>) -> tensor<4xf32>\n    %1 = stablehlo.broadcast_in_dim %cst, dims = [] : (tensor<f32>) -> tensor<1xf32>\n    %c = stablehlo.constant dense<0> : tensor<i64>\n    %c_0 = stablehlo.constant dense<0> : tensor<i64>\n    %2:10 = stablehlo.while(%iterArg = %arg5, %iterArg_1 = %arg3, %iterArg_2 = %arg4, %iterArg_3 = %arg1, %iterArg_4 = %arg2, %iterArg_5 = %0, %iterArg_6 = %arg0, %iterArg_7 = %c_0, %iterArg_8 = %c, %iterArg_9 = %1) : tensor<15x4xi32>, tensor<6xi64>, tensor<6xi64>, tensor<68xf32>, tensor<68xf32>, tensor<4xf32>, tensor<4xf32>, tensor<i64>, tensor<i64>, tensor<1xf32>\n     cond {\n      %c_10 = stablehlo.constant dense<15> : tensor<i64>\n      %3 = stablehlo.compare  LT, %iterArg_7, %c_10,  SIGNED : (tensor<i64>, tensor<i64>) -> tensor<i1>\n      stablehlo.return %3 : tensor<i1>\n    } do {\n      %3:2 = func.call @None(%iterArg, %iterArg_1, %iterArg_2, %iterArg_3, %iterArg_4, %iterArg_5, %iterArg_6, %iterArg_8, %iterArg_9) : (tensor<15x4xi32>, tensor<6xi64>, tensor<6xi64>, tensor<68xf32>, tensor<68xf32>, tensor<4xf32>, tensor<4xf32>, tensor<i64>, tensor<1xf32>) -> (tensor<i64>, tensor<1xf32>)\n      %c_10 = stablehlo.constant dense<1> : tensor<i64>\n      %4 = stablehlo.add %iterArg_7, %c_10 : tensor<i64>\n      stablehlo.return %iterArg, %iterArg_1, %iterArg_2, %iterArg_3, %iterArg_4, %iterArg_5, %iterArg_6, %4, %3#0, %3#1 : tensor<15x4xi32>, tensor<6xi64>, tensor<6xi64>, tensor<68xf32>, tensor<68xf32>, tensor<4xf32>, tensor<4xf32>, tensor<i64>, tensor<i64>, tensor<1xf32>\n    }\n    return %2#9 : tensor<1xf32>\n  }\n  func.func private @None(%arg0: tensor<15x4xi32>, %arg1: tensor<6xi64>, %arg2: tensor<6xi64>, %arg3: tensor<68xf32>, %arg4: tensor<68xf32>, %arg5: tensor<4xf32>, %arg6: tensor<4xf32>, %arg7: tensor<i64>, %arg8: tensor<1xf32>) -> (tensor<i64>, tensor<1xf32>) {\n    %c = stablehlo.constant dense<1> : tensor<i64>\n    %0 = stablehlo.add %arg7, %c : tensor<i64>\n    %c_0 = stablehlo.constant dense<0> : tensor<i64>\n    %1 = stablehlo.compare  LT, %arg7, %c_0,  SIGNED : (tensor<i64>, tensor<i64>) -> tensor<i1>\n    %2 = stablehlo.convert %arg7 : tensor<i64>\n    %c_1 = stablehlo.constant dense<15> : tensor<i64>\n    %3 = stablehlo.add %2, %c_1 : tensor<i64>\n    %4 = stablehlo.select %1, %3, %arg7 : tensor<i1>, tensor<i64>\n    %5 = stablehlo.dynamic_slice %arg0, %4, %c_0, sizes = [1, 4] : (tensor<15x4xi32>, tensor<i64>, tensor<i64>) -> tensor<1x4xi32>\n    %6 = stablehlo.reshape %5 : (tensor<1x4xi32>) -> tensor<4xi32>\n    %7 = stablehlo.slice %6 [0:1] : (tensor<4xi32>) -> tensor<1xi32>\n    %8 = stablehlo.reshape %7 : (tensor<1xi32>) -> tensor<i32>\n    %c_2 = stablehlo.constant dense<1> : tensor<i32>\n    %9 = stablehlo.subtract %8, %c_2 : tensor<i32>\n    %10 = call @_take(%arg1, %9) : (tensor<6xi64>, tensor<i32>) -> tensor<i64>\n    %11 = call @_take(%arg2, %9) : (tensor<6xi64>, tensor<i32>) -> tensor<i64>\n    %cst = stablehlo.constant dense<1.000000e+00> : tensor<f32>\n    %12:12 = stablehlo.while(%iterArg = %10, %iterArg_3 = %arg3, %iterArg_4 = %arg4, %iterArg_5 = %arg5, %iterArg_6 = %cst, %iterArg_7 = %6, %iterArg_8 = %arg1, %iterArg_9 = %arg2, %iterArg_10 = %arg6, %iterArg_11 = %c_0, %iterArg_12 = %11, %iterArg_13 = %arg8) : tensor<i64>, tensor<68xf32>, tensor<68xf32>, tensor<4xf32>, tensor<f32>, tensor<4xi32>, tensor<6xi64>, tensor<6xi64>, tensor<4xf32>, tensor<i64>, tensor<i64>, tensor<1xf32>\n     cond {\n      %13 = stablehlo.compare  LT, %iterArg_11, %iterArg_12,  SIGNED : (tensor<i64>, tensor<i64>) -> tensor<i1>\n      stablehlo.return %13 : tensor<i1>\n    } do {\n      %c_14 = stablehlo.constant dense<1> : tensor<i64>\n      %13 = stablehlo.add %iterArg_11, %c_14 : tensor<i64>\n      %14 = stablehlo.convert %iterArg_11 : tensor<i64>\n      %15 = stablehlo.add %iterArg, %14 : tensor<i64>\n      %16 = func.call @_take_0(%iterArg_3, %15) : (tensor<68xf32>, tensor<i64>) -> tensor<f32>\n      %17 = func.call @_take_0(%iterArg_4, %15) : (tensor<68xf32>, tensor<i64>) -> tensor<f32>\n      %18 = stablehlo.reshape %16 : (tensor<f32>) -> tensor<1xf32>\n      %19 = stablehlo.slice %iterArg_5 [0:0] : (tensor<4xf32>) -> tensor<0xf32>\n      %20 = stablehlo.slice %iterArg_5 [1:4] : (tensor<4xf32>) -> tensor<3xf32>\n      %21 = stablehlo.concatenate %19, %18, %20, dim = 0 : (tensor<0xf32>, tensor<1xf32>, tensor<3xf32>) -> tensor<4xf32>\n      %22 = stablehlo.multiply %iterArg_6, %17 : tensor<f32>\n      %23 = stablehlo.slice %iterArg_7 [1:2] : (tensor<4xi32>) -> tensor<1xi32>\n      %24 = stablehlo.reshape %23 : (tensor<1xi32>) -> tensor<i32>\n      %c_15 = stablehlo.constant dense<1> : tensor<i32>\n      %25 = stablehlo.subtract %24, %c_15 : tensor<i32>\n      %26 = func.call @_take_1(%iterArg_8, %25) : (tensor<6xi64>, tensor<i32>) -> tensor<i64>\n      %27 = func.call @_take_1(%iterArg_9, %25) : (tensor<6xi64>, tensor<i32>) -> tensor<i64>\n      %c_16 = stablehlo.constant dense<0> : tensor<i64>\n      %28:12 = stablehlo.while(%iterArg_17 = %26, %iterArg_18 = %iterArg_3, %iterArg_19 = %iterArg_4, %iterArg_20 = %21, %iterArg_21 = %22, %iterArg_22 = %iterArg_7, %iterArg_23 = %iterArg_8, %iterArg_24 = %iterArg_9, %iterArg_25 = %iterArg_10, %iterArg_26 = %c_16, %iterArg_27 = %27, %iterArg_28 = %iterArg_13) : tensor<i64>, tensor<68xf32>, tensor<68xf32>, tensor<4xf32>, tensor<f32>, tensor<4xi32>, tensor<6xi64>, tensor<6xi64>, tensor<4xf32>, tensor<i64>, tensor<i64>, tensor<1xf32>\n       cond {\n        %29 = stablehlo.compare  LT, %iterArg_26, %iterArg_27,  SIGNED : (tensor<i64>, tensor<i64>) -> tensor<i1>\n        stablehlo.return %29 : tensor<i1>\n      } do {\n        %c_29 = stablehlo.constant dense<1> : tensor<i64>\n        %29 = stablehlo.add %iterArg_26, %c_29 : tensor<i64>\n        %30 = stablehlo.convert %iterArg_26 : tensor<i64>\n        %31 = stablehlo.add %iterArg_17, %30 : tensor<i64>\n        %32 = func.call @_take_0(%iterArg_18, %31) : (tensor<68xf32>, tensor<i64>) -> tensor<f32>\n        %33 = func.call @_take_0(%iterArg_19, %31) : (tensor<68xf32>, tensor<i64>) -> tensor<f32>\n        %34 = stablehlo.reshape %32 : (tensor<f32>) -> tensor<1xf32>\n        %35 = stablehlo.slice %iterArg_20 [0:1] : (tensor<4xf32>) -> tensor<1xf32>\n        %36 = stablehlo.slice %iterArg_20 [2:4] : (tensor<4xf32>) -> tensor<2xf32>\n        %37 = stablehlo.concatenate %35, %34, %36, dim = 0 : (tensor<1xf32>, tensor<1xf32>, tensor<2xf32>) -> tensor<4xf32>\n        %38 = stablehlo.multiply %iterArg_21, %33 : tensor<f32>\n        %39 = stablehlo.slice %iterArg_22 [2:3] : (tensor<4xi32>) -> tensor<1xi32>\n        %40 = stablehlo.reshape %39 : (tensor<1xi32>) -> tensor<i32>\n        %c_30 = stablehlo.constant dense<1> : tensor<i32>\n        %41 = stablehlo.subtract %40, %c_30 : tensor<i32>\n        %42 = func.call @_take_1(%iterArg_23, %41) : (tensor<6xi64>, tensor<i32>) -> tensor<i64>\n        %43 = func.call @_take_1(%iterArg_24, %41) : (tensor<6xi64>, tensor<i32>) -> tensor<i64>\n        %c_31 = stablehlo.constant dense<0> : tensor<i64>\n        %44:12 = stablehlo.while(%iterArg_32 = %42, %iterArg_33 = %iterArg_18, %iterArg_34 = %iterArg_19, %iterArg_35 = %37, %iterArg_36 = %38, %iterArg_37 = %iterArg_22, %iterArg_38 = %iterArg_23, %iterArg_39 = %iterArg_24, %iterArg_40 = %iterArg_25, %iterArg_41 = %c_31, %iterArg_42 = %43, %iterArg_43 = %iterArg_28) : tensor<i64>, tensor<68xf32>, tensor<68xf32>, tensor<4xf32>, tensor<f32>, tensor<4xi32>, tensor<6xi64>, tensor<6xi64>, tensor<4xf32>, tensor<i64>, tensor<i64>, tensor<1xf32>\n         cond {\n          %45 = stablehlo.compare  LT, %iterArg_41, %iterArg_42,  SIGNED : (tensor<i64>, tensor<i64>) -> tensor<i1>\n          stablehlo.return %45 : tensor<i1>\n        } do {\n          %c_44 = stablehlo.constant dense<1> : tensor<i64>\n          %45 = stablehlo.add %iterArg_41, %c_44 : tensor<i64>\n          %46 = stablehlo.convert %iterArg_41 : tensor<i64>\n          %47 = stablehlo.add %iterArg_32, %46 : tensor<i64>\n          %48 = func.call @_take_0(%iterArg_33, %47) : (tensor<68xf32>, tensor<i64>) -> tensor<f32>\n          %49 = func.call @_take_0(%iterArg_34, %47) : (tensor<68xf32>, tensor<i64>) -> tensor<f32>\n          %50 = stablehlo.reshape %48 : (tensor<f32>) -> tensor<1xf32>\n          %51 = stablehlo.slice %iterArg_35 [0:2] : (tensor<4xf32>) -> tensor<2xf32>\n          %52 = stablehlo.slice %iterArg_35 [3:4] : (tensor<4xf32>) -> tensor<1xf32>\n          %53 = stablehlo.concatenate %51, %50, %52, dim = 0 : (tensor<2xf32>, tensor<1xf32>, tensor<1xf32>) -> tensor<4xf32>\n          %54 = stablehlo.multiply %iterArg_36, %49 : tensor<f32>\n          %55 = stablehlo.slice %iterArg_37 [3:4] : (tensor<4xi32>) -> tensor<1xi32>\n          %56 = stablehlo.reshape %55 : (tensor<1xi32>) -> tensor<i32>\n          %c_45 = stablehlo.constant dense<1> : tensor<i32>\n          %57 = stablehlo.subtract %56, %c_45 : tensor<i32>\n          %58 = func.call @_take_1(%iterArg_38, %57) : (tensor<6xi64>, tensor<i32>) -> tensor<i64>\n          %59 = func.call @_take_1(%iterArg_39, %57) : (tensor<6xi64>, tensor<i32>) -> tensor<i64>\n          %60 = stablehlo.iota dim = 0 : tensor<16384xi64>\n          %c_46 = stablehlo.constant dense<16384> : tensor<i64>\n          %61 = stablehlo.add %59, %c_46 : tensor<i64>\n          %c_47 = stablehlo.constant dense<1> : tensor<i64>\n          %62 = stablehlo.subtract %61, %c_47 : tensor<i64>\n          %c_48 = stablehlo.constant dense<16384> : tensor<i64>\n          %63 = func.call @floor_divide(%62, %c_48) : (tensor<i64>, tensor<i64>) -> tensor<i64>\n          %c_49 = stablehlo.constant dense<0> : tensor<i64>\n          %64:11 = stablehlo.while(%iterArg_50 = %60, %iterArg_51 = %59, %iterArg_52 = %58, %iterArg_53 = %iterArg_33, %iterArg_54 = %iterArg_34, %iterArg_55 = %53, %iterArg_56 = %iterArg_40, %iterArg_57 = %54, %iterArg_58 = %c_49, %iterArg_59 = %63, %iterArg_60 = %iterArg_43) : tensor<16384xi64>, tensor<i64>, tensor<i64>, tensor<68xf32>, tensor<68xf32>, tensor<4xf32>, tensor<4xf32>, tensor<f32>, tensor<i64>, tensor<i64>, tensor<1xf32>\n           cond {\n            %65 = stablehlo.compare  LT, %iterArg_58, %iterArg_59,  SIGNED : (tensor<i64>, tensor<i64>) -> tensor<i1>\n            stablehlo.return %65 : tensor<i1>\n          } do {\n            %c_61 = stablehlo.constant dense<1> : tensor<i64>\n            %65 = stablehlo.add %iterArg_58, %c_61 : tensor<i64>\n            %66 = stablehlo.convert %iterArg_58 : tensor<i64>\n            %c_62 = stablehlo.constant dense<16384> : tensor<i64>\n            %67 = stablehlo.multiply %66, %c_62 : tensor<i64>\n            %68 = stablehlo.broadcast_in_dim %67, dims = [] : (tensor<i64>) -> tensor<16384xi64>\n            %69 = stablehlo.add %68, %iterArg_50 : tensor<16384xi64>\n            %70 = stablehlo.broadcast_in_dim %iterArg_51, dims = [] : (tensor<i64>) -> tensor<16384xi64>\n            %71 = stablehlo.compare  LT, %69, %70,  SIGNED : (tensor<16384xi64>, tensor<16384xi64>) -> tensor<16384xi1>\n            %c_63 = stablehlo.constant dense<0> : tensor<i64>\n            %72 = func.call @_where_2(%71, %69, %c_63) : (tensor<16384xi1>, tensor<16384xi64>, tensor<i64>) -> tensor<16384xi64>\n            %73 = stablehlo.broadcast_in_dim %iterArg_52, dims = [] : (tensor<i64>) -> tensor<16384xi64>\n            %74 = stablehlo.add %73, %72 : tensor<16384xi64>\n            %75 = func.call @_take_3(%iterArg_53, %74) : (tensor<68xf32>, tensor<16384xi64>) -> tensor<16384xf32>\n            %76 = func.call @_take_3(%iterArg_54, %74) : (tensor<68xf32>, tensor<16384xi64>) -> tensor<16384xf32>\n            %77 = stablehlo.reshape %75 : (tensor<16384xf32>) -> tensor<16384x1xf32>\n            %78 = stablehlo.slice %iterArg_55 [0:3] : (tensor<4xf32>) -> tensor<3xf32>\n            %79 = stablehlo.slice %iterArg_55 [4:4] : (tensor<4xf32>) -> tensor<0xf32>\n            %80 = stablehlo.broadcast_in_dim %78, dims = [1] : (tensor<3xf32>) -> tensor<16384x3xf32>\n            %81 = stablehlo.broadcast_in_dim %79, dims = [1] : (tensor<0xf32>) -> tensor<16384x0xf32>\n            %82 = stablehlo.concatenate %80, %77, %81, dim = 1 : (tensor<16384x3xf32>, tensor<16384x1xf32>, tensor<16384x0xf32>) -> tensor<16384x4xf32>\n            %83 = stablehlo.transpose %82, dims = [1, 0] : (tensor<16384x4xf32>) -> tensor<4x16384xf32>\n            %84 = stablehlo.dot_general %iterArg_56, %83, contracting_dims = [0] x [0], precision = [DEFAULT, DEFAULT] : (tensor<4xf32>, tensor<4x16384xf32>) -> tensor<16384xf32>\n            %85 = stablehlo.exponential %84 : tensor<16384xf32>\n            %86 = stablehlo.broadcast_in_dim %85, dims = [0] : (tensor<16384xf32>) -> tensor<16384x1xf32>\n            %87 = stablehlo.transpose %86, dims = [1, 0] : (tensor<16384x1xf32>) -> tensor<1x16384xf32>\n            %88 = stablehlo.broadcast_in_dim %iterArg_57, dims = [] : (tensor<f32>) -> tensor<16384xf32>\n            %89 = stablehlo.multiply %88, %76 : tensor<16384xf32>\n            %90 = func.call @_where_4(%71, %89, %c_63) : (tensor<16384xi1>, tensor<16384xf32>, tensor<i64>) -> tensor<16384xf32>\n            %91 = stablehlo.dot_general %87, %90, contracting_dims = [1] x [0], precision = [DEFAULT, DEFAULT] : (tensor<1x16384xf32>, tensor<16384xf32>) -> tensor<1xf32>\n            %92 = stablehlo.add %iterArg_60, %91 : tensor<1xf32>\n            stablehlo.return %iterArg_50, %iterArg_51, %iterArg_52, %iterArg_53, %iterArg_54, %iterArg_55, %iterArg_56, %iterArg_57, %65, %iterArg_59, %92 : tensor<16384xi64>, tensor<i64>, tensor<i64>, tensor<68xf32>, tensor<68xf32>, tensor<4xf32>, tensor<4xf32>, tensor<f32>, tensor<i64>, tensor<i64>, tensor<1xf32>\n          }\n          stablehlo.return %iterArg_32, %iterArg_33, %iterArg_34, %iterArg_35, %iterArg_36, %iterArg_37, %iterArg_38, %iterArg_39, %iterArg_40, %45, %iterArg_42, %64#10 : tensor<i64>, tensor<68xf32>, tensor<68xf32>, tensor<4xf32>, tensor<f32>, tensor<4xi32>, tensor<6xi64>, tensor<6xi64>, tensor<4xf32>, tensor<i64>, tensor<i64>, tensor<1xf32>\n        }\n        stablehlo.return %iterArg_17, %iterArg_18, %iterArg_19, %iterArg_20, %iterArg_21, %iterArg_22, %iterArg_23, %iterArg_24, %iterArg_25, %29, %iterArg_27, %44#11 : tensor<i64>, tensor<68xf32>, tensor<68xf32>, tensor<4xf32>, tensor<f32>, tensor<4xi32>, tensor<6xi64>, tensor<6xi64>, tensor<4xf32>, tensor<i64>, tensor<i64>, tensor<1xf32>\n      }\n      stablehlo.return %iterArg, %iterArg_3, %iterArg_4, %iterArg_5, %iterArg_6, %iterArg_7, %iterArg_8, %iterArg_9, %iterArg_10, %13, %iterArg_12, %28#11 : tensor<i64>, tensor<68xf32>, tensor<68xf32>, tensor<4xf32>, tensor<f32>, tensor<4xi32>, tensor<6xi64>, tensor<6xi64>, tensor<4xf32>, tensor<i64>, tensor<i64>, tensor<1xf32>\n    }\n    return %0, %12#11 : tensor<i64>, tensor<1xf32>\n  }\n  func.func private @_take(%arg0: tensor<6xi64>, %arg1: tensor<i32>) -> tensor<i64> {\n    %0 = stablehlo.broadcast_in_dim %arg1, dims = [] : (tensor<i32>) -> tensor<1xi32>\n    %1 = \"stablehlo.gather\"(%arg0, %0) <{dimension_numbers = #stablehlo.gather<collapsed_slice_dims = [0], start_index_map = [0]>, indices_are_sorted = false, slice_sizes = array<i64: 1>}> : (tensor<6xi64>, tensor<1xi32>) -> tensor<i64>\n    return %1 : tensor<i64>\n  }\n  func.func private @_take_0(%arg0: tensor<68xf32>, %arg1: tensor<i64>) -> tensor<f32> {\n    %0 = stablehlo.broadcast_in_dim %arg1, dims = [] : (tensor<i64>) -> tensor<1xi64>\n    %1 = \"stablehlo.gather\"(%arg0, %0) <{dimension_numbers = #stablehlo.gather<collapsed_slice_dims = [0], start_index_map = [0]>, indices_are_sorted = false, slice_sizes = array<i64: 1>}> : (tensor<68xf32>, tensor<1xi64>) -> tensor<f32>\n    return %1 : tensor<f32>\n  }\n  func.func private @_take_1(%arg0: tensor<6xi64>, %arg1: tensor<i32>) -> tensor<i64> {\n    %0 = stablehlo.broadcast_in_dim %arg1, dims = [] : (tensor<i32>) -> tensor<1xi32>\n    %1 = \"stablehlo.gather\"(%arg0, %0) <{dimension_numbers = #stablehlo.gather<collapsed_slice_dims = [0], start_index_map = [0]>, indices_are_sorted = false, slice_sizes = array<i64: 1>}> : (tensor<6xi64>, tensor<1xi32>) -> tensor<i64>\n    return %1 : tensor<i64>\n  }\n  func.func private @floor_divide(%arg0: tensor<i64>, %arg1: tensor<i64>) -> tensor<i64> {\n    %0 = stablehlo.convert %arg1 : tensor<i64>\n    %1 = stablehlo.divide %arg0, %0 : tensor<i64>\n    %2 = stablehlo.sign %arg0 : tensor<i64>\n    %3 = stablehlo.sign %0 : tensor<i64>\n    %4 = stablehlo.compare  NE, %2, %3,  SIGNED : (tensor<i64>, tensor<i64>) -> tensor<i1>\n    %5 = stablehlo.remainder %arg0, %0 : tensor<i64>\n    %c = stablehlo.constant dense<0> : tensor<i64>\n    %6 = stablehlo.compare  NE, %5, %c,  SIGNED : (tensor<i64>, tensor<i64>) -> tensor<i1>\n    %7 = stablehlo.and %4, %6 : tensor<i1>\n    %c_0 = stablehlo.constant dense<1> : tensor<i64>\n    %8 = stablehlo.subtract %1, %c_0 : tensor<i64>\n    %9 = call @_where(%7, %8, %1) : (tensor<i1>, tensor<i64>, tensor<i64>) -> tensor<i64>\n    return %9 : tensor<i64>\n  }\n  func.func private @_where(%arg0: tensor<i1>, %arg1: tensor<i64>, %arg2: tensor<i64>) -> tensor<i64> {\n    %0 = stablehlo.select %arg0, %arg1, %arg2 : tensor<i1>, tensor<i64>\n    return %0 : tensor<i64>\n  }\n  func.func private @_where_2(%arg0: tensor<16384xi1>, %arg1: tensor<16384xi64>, %arg2: tensor<i64>) -> tensor<16384xi64> {\n    %0 = stablehlo.convert %arg2 : tensor<i64>\n    %1 = stablehlo.broadcast_in_dim %0, dims = [] : (tensor<i64>) -> tensor<16384xi64>\n    %2 = stablehlo.select %arg0, %arg1, %1 : tensor<16384xi1>, tensor<16384xi64>\n    return %2 : tensor<16384xi64>\n  }\n  func.func private @_take_3(%arg0: tensor<68xf32>, %arg1: tensor<16384xi64>) -> tensor<16384xf32> {\n    %0 = stablehlo.broadcast_in_dim %arg1, dims = [0] : (tensor<16384xi64>) -> tensor<16384x1xi64>\n    %1 = \"stablehlo.gather\"(%arg0, %0) <{dimension_numbers = #stablehlo.gather<collapsed_slice_dims = [0], start_index_map = [0], index_vector_dim = 1>, indices_are_sorted = false, slice_sizes = array<i64: 1>}> : (tensor<68xf32>, tensor<16384x1xi64>) -> tensor<16384xf32>\n    return %1 : tensor<16384xf32>\n  }\n  func.func private @_where_4(%arg0: tensor<16384xi1>, %arg1: tensor<16384xf32>, %arg2: tensor<i64>) -> tensor<16384xf32> {\n    %0 = stablehlo.convert %arg2 : (tensor<i64>) -> tensor<f32>\n    %1 = stablehlo.broadcast_in_dim %0, dims = [] : (tensor<f32>) -> tensor<16384xf32>\n    %2 = stablehlo.select %arg0, %arg1, %1 : tensor<16384xi1>, tensor<16384xf32>\n    return %2 : tensor<16384xf32>\n  }\n}\n", "size": {"preferred_dialect": "stablehlo", "preferred_text": {"chars": 19051, "lines": 216, "utf8_bytes": 19051}, "stablehlo_text": {"chars": 19051, "lines": 216, "utf8_bytes": 19051}, "hlo_text": {"chars": 26446, "lines": 363, "utf8_bytes": 26446}, "hlo_proto_bytes": 57335}, "compiled": {"available": true, "cost_analysis": {"bytes accessedout{}": 328897.0, "utilization1{}": 39.0, "utilization5{}": 12.0, "bytes accessed2{}": 156.0, "utilization13{}": 4.0, "bytes accessed5{}": 16.0, "utilization7{}": 10.0, "utilization3{}": 15.0, "utilization2{}": 30.0, "utilization4{}": 13.0, "utilization8{}": 10.0, "flops": 327749.0, "bytes accessed1{}": 66068.0, "bytes accessed3{}": 262168.0, "bytes accessed4{}": 24.0, "bytes accessed6{}": 12.0, "bytes accessed": 788933.0, "utilization9{}": 8.0, "utilization0{}": 132.0, "utilization10{}": 8.0, "utilization6{}": 11.0, "utilization11{}": 6.0, "transcendentals": 16384.0, "bytes accessed0{}": 131624.0, "utilization12{}": 6.0}, "memory_analysis": {"generated_code_size_in_bytes": 0, "argument_size_in_bytes": 896, "output_size_in_bytes": 4, "alias_size_in_bytes": 0, "temp_size_in_bytes": 264068, "host_generated_code_size_in_bytes": 0, "host_argument_size_in_bytes": 0, "host_output_size_in_bytes": 0, "host_alias_size_in_bytes": 0, "host_temp_size_in_bytes": 0}}}
{"case": "hlo", "tag": "smolyak_repeated_integral", "dialect": "stablehlo", "hlo": "module @jit__compiled_repeated_integral attributes {mhlo.num_partitions = 1 : i32, mhlo.num_replicas = 1 : i32} {\n  func.func public @main(%arg0: tensor<4xf32>, %arg1: tensor<68xf32>, %arg2: tensor<68xf32>, %arg3: tensor<6xi64>, %arg4: tensor<6xi64>, %arg5: tensor<15x4xi32>, %arg6: tensor<i64>) -> (tensor<1xf32> {jax.result_info = \"result\"}) {\n    %0 = call @_compiled_repeated_integral(%arg0, %arg1, %arg2, %arg3, %arg4, %arg5, %arg6) : (tensor<4xf32>, tensor<68xf32>, tensor<68xf32>, tensor<6xi64>, tensor<6xi64>, tensor<15x4xi32>, tensor<i64>) -> tensor<1xf32>\n    return %0 : tensor<1xf32>\n  }\n  func.func private @_compiled_repeated_integral(%arg0: tensor<4xf32>, %arg1: tensor<68xf32>, %arg2: tensor<68xf32>, %arg3: tensor<6xi64>, %arg4: tensor<6xi64>, %arg5: tensor<15x4xi32>, %arg6: tensor<i64>) -> tensor<1xf32> {\n    %cst = stablehlo.constant dense<0.000000e+00> : tensor<f32>\n    %0 = stablehlo.broadcast_in_dim %cst, dims = [] : (tensor<f32>) -> tensor<1xf32>\n    %c = stablehlo.constant dense<0> : tensor<i64>\n    %1:9 = stablehlo.while(%iterArg = %arg0, %iterArg_0 = %arg5, %iterArg_1 = %arg3, %iterArg_2 = %arg4, %iterArg_3 = %arg1, %iterArg_4 = %arg2, %iterArg_5 = %c, %iterArg_6 = %arg6, %iterArg_7 = %0) : tensor<4xf32>, tensor<15x4xi32>, tensor<6xi64>, tensor<6xi64>, tensor<68xf32>, tensor<68xf32>, tensor<i64>, tensor<i64>, tensor<1xf32>\n     cond {\n      %5 = stablehlo.compare  LT, %iterArg_5, %iterArg_6,  SIGNED : (tensor<i64>, tensor<i64>) -> tensor<i1>\n      stablehlo.return %5 : tensor<i1>\n    } do {\n      %c_8 = stablehlo.constant dense<1> : tensor<i64>\n      %5 = stablehlo.add %iterArg_5, %c_8 : tensor<i64>\n      %cst_9 = stablehlo.constant dense<0.000000e+00> : tensor<f32>\n      %6 = stablehlo.broadcast_in_dim %cst_9, dims = [] : (tensor<f32>) -> tensor<4xf32>\n      %7 = stablehlo.dot_general %iterArg, %6, contracting_dims = [0] x [0], precision = [DEFAULT, DEFAULT] : (tensor<4xf32>, tensor<4xf32>) -> tensor<f32>\n      %8 = stablehlo.exponential %7 : tensor<f32>\n      %9 = stablehlo.broadcast_in_dim %8, dims = [] : (tensor<f32>) -> tensor<1xf32>\n      %10 = stablehlo.broadcast_in_dim %cst_9, dims = [] : (tensor<f32>) -> tensor<1xf32>\n      %c_10 = stablehlo.constant dense<0> : tensor<i64>\n      %c_11 = stablehlo.constant dense<0> : tensor<i64>\n      %11:10 = stablehlo.while(%iterArg_12 = %iterArg_0, %iterArg_13 = %iterArg_1, %iterArg_14 = %iterArg_2, %iterArg_15 = %iterArg_3, %iterArg_16 = %iterArg_4, %iterArg_17 = %6, %iterArg_18 = %iterArg, %iterArg_19 = %c_11, %iterArg_20 = %c_10, %iterArg_21 = %10) : tensor<15x4xi32>, tensor<6xi64>, tensor<6xi64>, tensor<68xf32>, tensor<68xf32>, tensor<4xf32>, tensor<4xf32>, tensor<i64>, tensor<i64>, tensor<1xf32>\n       cond {\n        %c_22 = stablehlo.constant dense<15> : tensor<i64>\n        %13 = stablehlo.compare  LT, %iterArg_19, %c_22,  SIGNED : (tensor<i64>, tensor<i64>) -> tensor<i1>\n        stablehlo.return %13 : tensor<i1>\n      } do {\n        %13:2 = func.call @None(%iterArg_12, %iterArg_13, %iterArg_14, %iterArg_15, %iterArg_16, %iterArg_17, %iterArg_18, %iterArg_20, %iterArg_21) : (tensor<15x4xi32>, tensor<6xi64>, tensor<6xi64>, tensor<68xf32>, tensor<68xf32>, tensor<4xf32>, tensor<4xf32>, tensor<i64>, tensor<1xf32>) -> (tensor<i64>, tensor<1xf32>)\n        %c_22 = stablehlo.constant dense<1> : tensor<i64>\n        %14 = stablehlo.add %iterArg_19, %c_22 : tensor<i64>\n        stablehlo.return %iterArg_12, %iterArg_13, %iterArg_14, %iterArg_15, %iterArg_16, %iterArg_17, %iterArg_18, %14, %13#0, %13#1 : tensor<15x4xi32>, tensor<6xi64>, tensor<6xi64>, tensor<68xf32>, tensor<68xf32>, tensor<4xf32>, tensor<4xf32>, tensor<i64>, tensor<i64>, tensor<1xf32>\n      }\n      %12 = stablehlo.add %iterArg_7, %11#9 : tensor<1xf32>\n      stablehlo.return %iterArg, %iterArg_0, %iterArg_1, %iterArg_2, %iterArg_3, %iterArg_4, %5, %iterArg_6, %12 : tensor<4xf32>, tensor<15x4xi32>, tensor<6xi64>, tensor<6xi64>, tensor<68xf32>, tensor<68xf32>, tensor<i64>, tensor<i64>, tensor<1xf32>\n    }\n    %2 = stablehlo.convert %arg6 : (tensor<i64>) -> tensor<f32>\n    %3 = stablehlo.broadcast_in_dim %2, dims = [] : (tensor<f32>) -> tensor<1xf32>\n    %4 = stablehlo.divide %1#8, %3 : tensor<1xf32>\n    return %4 : tensor<1xf32>\n  }\n  func.func private @None(%arg0: tensor<15x4xi32>, %arg1: tensor<6xi64>, %arg2: tensor<6xi64>, %arg3: tensor<68xf32>, %arg4: tensor<68xf32>, %arg5: tensor<4xf32>, %arg6: tensor<4xf32>, %arg7: tensor<i64>, %arg8: tensor<1xf32>) -> (tensor<i64>, tensor<1xf32>) {\n    %c = stablehlo.constant dense<1> : tensor<i64>\n    %0 = stablehlo.add %arg7, %c : tensor<i64>\n    %c_0 = stablehlo.constant dense<0> : tensor<i64>\n    %1 = stablehlo.compare  LT, %arg7, %c_0,  SIGNED : (tensor<i64>, tensor<i64>) -> tensor<i1>\n    %2 = stablehlo.convert %arg7 : tensor<i64>\n    %c_1 = stablehlo.constant dense<15> : tensor<i64>\n    %3 = stablehlo.add %2, %c_1 : tensor<i64>\n    %4 = stablehlo.select %1, %3, %arg7 : tensor<i1>, tensor<i64>\n    %5 = stablehlo.dynamic_slice %arg0, %4, %c_0, sizes = [1, 4] : (tensor<15x4xi32>, tensor<i64>, tensor<i64>) -> tensor<1x4xi32>\n    %6 = stablehlo.reshape %5 : (tensor<1x4xi32>) -> tensor<4xi32>\n    %7 = stablehlo.slice %6 [0:1] : (tensor<4xi32>) -> tensor<1xi32>\n    %8 = stablehlo.reshape %7 : (tensor<1xi32>) -> tensor<i32>\n    %c_2 = stablehlo.constant dense<1> : tensor<i32>\n    %9 = stablehlo.subtract %8, %c_2 : tensor<i32>\n    %10 = call @_take(%arg1, %9) : (tensor<6xi64>, tensor<i32>) -> tensor<i64>\n    %11 = call @_take(%arg2, %9) : (tensor<6xi64>, tensor<i32>) -> tensor<i64>\n    %cst = stablehlo.constant dense<1.000000e+00> : tensor<f32>\n    %12:12 = stablehlo.while(%iterArg = %10, %iterArg_3 = %arg3, %iterArg_4 = %arg4, %iterArg_5 = %arg5, %iterArg_6 = %cst, %iterArg_7 = %6, %iterArg_8 = %arg1, %iterArg_9 = %arg2, %iterArg_10 = %arg6, %iterArg_11 = %c_0, %iterArg_12 = %11, %iterArg_13 = %arg8) : tensor<i64>, tensor<68xf32>, tensor<68xf32>, tensor<4xf32>, tensor<f32>, tensor<4xi32>, tensor<6xi64>, tensor<6xi64>, tensor<4xf32>, tensor<i64>, tensor<i64>, tensor<1xf32>\n     cond {\n      %13 = stablehlo.compare  LT, %iterArg_11, %iterArg_12,  SIGNED : (tensor<i64>, tensor<i64>) -> tensor<i1>\n      stablehlo.return %13 : tensor<i1>\n    } do {\n      %c_14 = stablehlo.constant dense<1> : tensor<i64>\n      %13 = stablehlo.add %iterArg_11, %c_14 : tensor<i64>\n      %14 = stablehlo.convert %iterArg_11 : tensor<i64>\n      %15 = stablehlo.add %iterArg, %14 : tensor<i64>\n      %16 = func.call @_take_0(%iterArg_3, %15) : (tensor<68xf32>, tensor<i64>) -> tensor<f32>\n      %17 = func.call @_take_0(%iterArg_4, %15) : (tensor<68xf32>, tensor<i64>) -> tensor<f32>\n      %18 = stablehlo.reshape %16 : (tensor<f32>) -> tensor<1xf32>\n      %19 = stablehlo.slice %iterArg_5 [0:0] : (tensor<4xf32>) -> tensor<0xf32>\n      %20 = stablehlo.slice %iterArg_5 [1:4] : (tensor<4xf32>) -> tensor<3xf32>\n      %21 = stablehlo.concatenate %19, %18, %20, dim = 0 : (tensor<0xf32>, tensor<1xf32>, tensor<3xf32>) -> tensor<4xf32>\n      %22 = stablehlo.multiply %iterArg_6, %17 : tensor<f32>\n      %23 = stablehlo.slice %iterArg_7 [1:2] : (tensor<4xi32>) -> tensor<1xi32>\n      %24 = stablehlo.reshape %23 : (tensor<1xi32>) -> tensor<i32>\n      %c_15 = stablehlo.constant dense<1> : tensor<i32>\n      %25 = stablehlo.subtract %24, %c_15 : tensor<i32>\n      %26 = func.call @_take(%iterArg_8, %25) : (tensor<6xi64>, tensor<i32>) -> tensor<i64>\n      %27 = func.call @_take(%iterArg_9, %25) : (tensor<6xi64>, tensor<i32>) -> tensor<i64>\n      %c_16 = stablehlo.constant dense<0> : tensor<i64>\n      %28:12 = stablehlo.while(%iterArg_17 = %26, %iterArg_18 = %iterArg_3, %iterArg_19 = %iterArg_4, %iterArg_20 = %21, %iterArg_21 = %22, %iterArg_22 = %iterArg_7, %iterArg_23 = %iterArg_8, %iterArg_24 = %iterArg_9, %iterArg_25 = %iterArg_10, %iterArg_26 = %c_16, %iterArg_27 = %27, %iterArg_28 = %iterArg_13) : tensor<i64>, tensor<68xf32>, tensor<68xf32>, tensor<4xf32>, tensor<f32>, tensor<4xi32>, tensor<6xi64>, tensor<6xi64>, tensor<4xf32>, tensor<i64>, tensor<i64>, tensor<1xf32>\n       cond {\n        %29 = stablehlo.compare  LT, %iterArg_26, %iterArg_27,  SIGNED : (tensor<i64>, tensor<i64>) -> tensor<i1>\n        stablehlo.return %29 : tensor<i1>\n      } do {\n        %c_29 = stablehlo.constant dense<1> : tensor<i64>\n        %29 = stablehlo.add %iterArg_26, %c_29 : tensor<i64>\n        %30 = stablehlo.convert %iterArg_26 : tensor<i64>\n        %31 = stablehlo.add %iterArg_17, %30 : tensor<i64>\n        %32 = func.call @_take_0(%iterArg_18, %31) : (tensor<68xf32>, tensor<i64>) -> tensor<f32>\n        %33 = func.call @_take_0(%iterArg_19, %31) : (tensor<68xf32>, tensor<i64>) -> tensor<f32>\n        %34 = stablehlo.reshape %32 : (tensor<f32>) -> tensor<1xf32>\n        %35 = stablehlo.slice %iterArg_20 [0:1] : (tensor<4xf32>) -> tensor<1xf32>\n        %36 = stablehlo.slice %iterArg_20 [2:4] : (tensor<4xf32>) -> tensor<2xf32>\n        %37 = stablehlo.concatenate %35, %34, %36, dim = 0 : (tensor<1xf32>, tensor<1xf32>, tensor<2xf32>) -> tensor<4xf32>\n        %38 = stablehlo.multiply %iterArg_21, %33 : tensor<f32>\n        %39 = stablehlo.slice %iterArg_22 [2:3] : (tensor<4xi32>) -> tensor<1xi32>\n        %40 = stablehlo.reshape %39 : (tensor<1xi32>) -> tensor<i32>\n        %c_30 = stablehlo.constant dense<1> : tensor<i32>\n        %41 = stablehlo.subtract %40, %c_30 : tensor<i32>\n        %42 = func.call @_take(%iterArg_23, %41) : (tensor<6xi64>, tensor<i32>) -> tensor<i64>\n        %43 = func.call @_take(%iterArg_24, %41) : (tensor<6xi64>, tensor<i32>) -> tensor<i64>\n        %c_31 = stablehlo.constant dense<0> : tensor<i64>\n        %44:12 = stablehlo.while(%iterArg_32 = %42, %iterArg_33 = %iterArg_18, %iterArg_34 = %iterArg_19, %iterArg_35 = %37, %iterArg_36 = %38, %iterArg_37 = %iterArg_22, %iterArg_38 = %iterArg_23, %iterArg_39 = %iterArg_24, %iterArg_40 = %iterArg_25, %iterArg_41 = %c_31, %iterArg_42 = %43, %iterArg_43 = %iterArg_28) : tensor<i64>, tensor<68xf32>, tensor<68xf32>, tensor<4xf32>, tensor<f32>, tensor<4xi32>, tensor<6xi64>, tensor<6xi64>, tensor<4xf32>, tensor<i64>, tensor<i64>, tensor<1xf32>\n         cond {\n          %45 = stablehlo.compare  LT, %iterArg_41, %iterArg_42,  SIGNED : (tensor<i64>, tensor<i64>) -> tensor<i1>\n          stablehlo.return %45 : tensor<i1>\n        } do {\n          %c_44 = stablehlo.constant dense<1> : tensor<i64>\n          %45 = stablehlo.add %iterArg_41, %c_44 : tensor<i64>\n          %46 = stablehlo.convert %iterArg_41 : tensor<i64>\n          %47 = stablehlo.add %iterArg_32, %46 : tensor<i64>\n          %48 = func.call @_take_0(%iterArg_33, %47) : (tensor<68xf32>, tensor<i64>) -> tensor<f32>\n          %49 = func.call @_take_0(%iterArg_34, %47) : (tensor<68xf32>, tensor<i64>) -> tensor<f32>\n          %50 = stablehlo.reshape %48 : (tensor<f32>) -> tensor<1xf32>\n          %51 = stablehlo.slice %iterArg_35 [0:2] : (tensor<4xf32>) -> tensor<2xf32>\n          %52 = stablehlo.slice %iterArg_35 [3:4] : (tensor<4xf32>) -> tensor<1xf32>\n          %53 = stablehlo.concatenate %51, %50, %52, dim = 0 : (tensor<2xf32>, tensor<1xf32>, tensor<1xf32>) -> tensor<4xf32>\n          %54 = stablehlo.multiply %iterArg_36, %49 : tensor<f32>\n          %55 = stablehlo.slice %iterArg_37 [3:4] : (tensor<4xi32>) -> tensor<1xi32>\n          %56 = stablehlo.reshape %55 : (tensor<1xi32>) -> tensor<i32>\n          %c_45 = stablehlo.constant dense<1> : tensor<i32>\n          %57 = stablehlo.subtract %56, %c_45 : tensor<i32>\n          %58 = func.call @_take(%iterArg_38, %57) : (tensor<6xi64>, tensor<i32>) -> tensor<i64>\n          %59 = func.call @_take(%iterArg_39, %57) : (tensor<6xi64>, tensor<i32>) -> tensor<i64>\n          %60 = stablehlo.iota dim = 0 : tensor<16384xi64>\n          %c_46 = stablehlo.constant dense<16384> : tensor<i64>\n          %61 = stablehlo.add %59, %c_46 : tensor<i64>\n          %c_47 = stablehlo.constant dense<1> : tensor<i64>\n          %62 = stablehlo.subtract %61, %c_47 : tensor<i64>\n          %c_48 = stablehlo.constant dense<16384> : tensor<i64>\n          %63 = func.call @floor_divide(%62, %c_48) : (tensor<i64>, tensor<i64>) -> tensor<i64>\n          %c_49 = stablehlo.constant dense<0> : tensor<i64>\n          %64:11 = stablehlo.while(%iterArg_50 = %60, %iterArg_51 = %59, %iterArg_52 = %58, %iterArg_53 = %iterArg_33, %iterArg_54 = %iterArg_34, %iterArg_55 = %53, %iterArg_56 = %iterArg_40, %iterArg_57 = %54, %iterArg_58 = %c_49, %iterArg_59 = %63, %iterArg_60 = %iterArg_43) : tensor<16384xi64>, tensor<i64>, tensor<i64>, tensor<68xf32>, tensor<68xf32>, tensor<4xf32>, tensor<4xf32>, tensor<f32>, tensor<i64>, tensor<i64>, tensor<1xf32>\n           cond {\n            %65 = stablehlo.compare  LT, %iterArg_58, %iterArg_59,  SIGNED : (tensor<i64>, tensor<i64>) -> tensor<i1>\n            stablehlo.return %65 : tensor<i1>\n          } do {\n            %c_61 = stablehlo.constant dense<1> : tensor<i64>\n            %65 = stablehlo.add %iterArg_58, %c_61 : tensor<i64>\n            %66 = stablehlo.convert %iterArg_58 : tensor<i64>\n            %c_62 = stablehlo.constant dense<16384> : tensor<i64>\n            %67 = stablehlo.multiply %66, %c_62 : tensor<i64>\n            %68 = stablehlo.broadcast_in_dim %67, dims = [] : (tensor<i64>) -> tensor<16384xi64>\n            %69 = stablehlo.add %68, %iterArg_50 : tensor<16384xi64>\n            %70 = stablehlo.broadcast_in_dim %iterArg_51, dims = [] : (tensor<i64>) -> tensor<16384xi64>\n            %71 = stablehlo.compare  LT, %69, %70,  SIGNED : (tensor<16384xi64>, tensor<16384xi64>) -> tensor<16384xi1>\n            %c_63 = stablehlo.constant dense<0> : tensor<i64>\n            %72 = func.call @_where_1(%71, %69, %c_63) : (tensor<16384xi1>, tensor<16384xi64>, tensor<i64>) -> tensor<16384xi64>\n            %73 = stablehlo.broadcast_in_dim %iterArg_52, dims = [] : (tensor<i64>) -> tensor<16384xi64>\n            %74 = stablehlo.add %73, %72 : tensor<16384xi64>\n            %75 = func.call @_take_2(%iterArg_53, %74) : (tensor<68xf32>, tensor<16384xi64>) -> tensor<16384xf32>\n            %76 = func.call @_take_2(%iterArg_54, %74) : (tensor<68xf32>, tensor<16384xi64>) -> tensor<16384xf32>\n            %77 = stablehlo.reshape %75 : (tensor<16384xf32>) -> tensor<16384x1xf32>\n            %78 = stablehlo.slice %iterArg_55 [0:3] : (tensor<4xf32>) -> tensor<3xf32>\n            %79 = stablehlo.slice %iterArg_55 [4:4] : (tensor<4xf32>) -> tensor<0xf32>\n            %80 = stablehlo.broadcast_in_dim %78, dims = [1] : (tensor<3xf32>) -> tensor<16384x3xf32>\n            %81 = stablehlo.broadcast_in_dim %79, dims = [1] : (tensor<0xf32>) -> tensor<16384x0xf32>\n            %82 = stablehlo.concatenate %80, %77, %81, dim = 1 : (tensor<16384x3xf32>, tensor<16384x1xf32>, tensor<16384x0xf32>) -> tensor<16384x4xf32>\n            %83 = stablehlo.transpose %82, dims = [1, 0] : (tensor<16384x4xf32>) -> tensor<4x16384xf32>\n            %84 = stablehlo.dot_general %iterArg_56, %83, contracting_dims = [0] x [0], precision = [DEFAULT, DEFAULT] : (tensor<4xf32>, tensor<4x16384xf32>) -> tensor<16384xf32>\n            %85 = stablehlo.exponential %84 : tensor<16384xf32>\n            %86 = stablehlo.broadcast_in_dim %85, dims = [0] : (tensor<16384xf32>) -> tensor<16384x1xf32>\n            %87 = stablehlo.transpose %86, dims = [1, 0] : (tensor<16384x1xf32>) -> tensor<1x16384xf32>\n            %88 = stablehlo.broadcast_in_dim %iterArg_57, dims = [] : (tensor<f32>) -> tensor<16384xf32>\n            %89 = stablehlo.multiply %88, %76 : tensor<16384xf32>\n            %90 = func.call @_where_3(%71, %89, %c_63) : (tensor<16384xi1>, tensor<16384xf32>, tensor<i64>) -> tensor<16384xf32>\n            %91 = stablehlo.dot_general %87, %90, contracting_dims = [1] x [0], precision = [DEFAULT, DEFAULT] : (tensor<1x16384xf32>, tensor<16384xf32>) -> tensor<1xf32>\n            %92 = stablehlo.add %iterArg_60, %91 : tensor<1xf32>\n            stablehlo.return %iterArg_50, %iterArg_51, %iterArg_52, %iterArg_53, %iterArg_54, %iterArg_55, %iterArg_56, %iterArg_57, %65, %iterArg_59, %92 : tensor<16384xi64>, tensor<i64>, tensor<i64>, tensor<68xf32>, tensor<68xf32>, tensor<4xf32>, tensor<4xf32>, tensor<f32>, tensor<i64>, tensor<i64>, tensor<1xf32>\n          }\n          stablehlo.return %iterArg_32, %iterArg_33, %iterArg_34, %iterArg_35, %iterArg_36, %iterArg_37, %iterArg_38, %iterArg_39, %iterArg_40, %45, %iterArg_42, %64#10 : tensor<i64>, tensor<68xf32>, tensor<68xf32>, tensor<4xf32>, tensor<f32>, tensor<4xi32>, tensor<6xi64>, tensor<6xi64>, tensor<4xf32>, tensor<i64>, tensor<i64>, tensor<1xf32>\n        }\n        stablehlo.return %iterArg_17, %iterArg_18, %iterArg_19, %iterArg_20, %iterArg_21, %iterArg_22, %iterArg_23, %iterArg_24, %iterArg_25, %29, %iterArg_27, %44#11 : tensor<i64>, tensor<68xf32>, tensor<68xf32>, tensor<4xf32>, tensor<f32>, tensor<4xi32>, tensor<6xi64>, tensor<6xi64>, tensor<4xf32>, tensor<i64>, tensor<i64>, tensor<1xf32>\n      }\n      stablehlo.return %iterArg, %iterArg_3, %iterArg_4, %iterArg_5, %iterArg_6, %iterArg_7, %iterArg_8, %iterArg_9, %iterArg_10, %13, %iterArg_12, %28#11 : tensor<i64>, tensor<68xf32>, tensor<68xf32>, tensor<4xf32>, tensor<f32>, tensor<4xi32>, tensor<6xi64>, tensor<6xi64>, tensor<4xf32>, tensor<i64>, tensor<i64>, tensor<1xf32>\n    }\n    return %0, %12#11 : tensor<i64>, tensor<1xf32>\n  }\n  func.func private @_take(%arg0: tensor<6xi64>, %arg1: tensor<i32>) -> tensor<i64> {\n    %0 = stablehlo.broadcast_in_dim %arg1, dims = [] : (tensor<i32>) -> tensor<1xi32>\n    %1 = \"stablehlo.gather\"(%arg0, %0) <{dimension_numbers = #stablehlo.gather<collapsed_slice_dims = [0], start_index_map = [0]>, indices_are_sorted = false, slice_sizes = array<i64: 1>}> : (tensor<6xi64>, tensor<1xi32>) -> tensor<i64>\n    return %1 : tensor<i64>\n  }\n  func.func private @_take_0(%arg0: tensor<68xf32>, %arg1: tensor<i64>) -> tensor<f32> {\n    %0 = stablehlo.broadcast_in_dim %arg1, dims = [] : (tensor<i64>) -> tensor<1xi64>\n    %1 = \"stablehlo.gather\"(%arg0, %0) <{dimension_numbers = #stablehlo.gather<collapsed_slice_dims = [0], start_index_map = [0]>, indices_are_sorted = false, slice_sizes = array<i64: 1>}> : (tensor<68xf32>, tensor<1xi64>) -> tensor<f32>\n    return %1 : tensor<f32>\n  }\n  func.func private @floor_divide(%arg0: tensor<i64>, %arg1: tensor<i64>) -> tensor<i64> {\n    %0 = stablehlo.convert %arg1 : tensor<i64>\n    %1 = stablehlo.divide %arg0, %0 : tensor<i64>\n    %2 = stablehlo.sign %arg0 : tensor<i64>\n    %3 = stablehlo.sign %0 : tensor<i64>\n    %4 = stablehlo.compare  NE, %2, %3,  SIGNED : (tensor<i64>, tensor<i64>) -> tensor<i1>\n    %5 = stablehlo.remainder %arg0, %0 : tensor<i64>\n    %c = stablehlo.constant dense<0> : tensor<i64>\n    %6 = stablehlo.compare  NE, %5, %c,  SIGNED : (tensor<i64>, tensor<i64>) -> tensor<i1>\n    %7 = stablehlo.and %4, %6 : tensor<i1>\n    %c_0 = stablehlo.constant dense<1> : tensor<i64>\n    %8 = stablehlo.subtract %1, %c_0 : tensor<i64>\n    %9 = call @_where(%7, %8, %1) : (tensor<i1>, tensor<i64>, tensor<i64>) -> tensor<i64>\n    return %9 : tensor<i64>\n  }\n  func.func private @_where(%arg0: tensor<i1>, %arg1: tensor<i64>, %arg2: tensor<i64>) -> tensor<i64> {\n    %0 = stablehlo.select %arg0, %arg1, %arg2 : tensor<i1>, tensor<i64>\n    return %0 : tensor<i64>\n  }\n  func.func private @_where_1(%arg0: tensor<16384xi1>, %arg1: tensor<16384xi64>, %arg2: tensor<i64>) -> tensor<16384xi64> {\n    %0 = stablehlo.convert %arg2 : tensor<i64>\n    %1 = stablehlo.broadcast_in_dim %0, dims = [] : (tensor<i64>) -> tensor<16384xi64>\n    %2 = stablehlo.select %arg0, %arg1, %1 : tensor<16384xi1>, tensor<16384xi64>\n    return %2 : tensor<16384xi64>\n  }\n  func.func private @_take_2(%arg0: tensor<68xf32>, %arg1: tensor<16384xi64>) -> tensor<16384xf32> {\n    %0 = stablehlo.broadcast_in_dim %arg1, dims = [0] : (tensor<16384xi64>) -> tensor<16384x1xi64>\n    %1 = \"stablehlo.gather\"(%arg0, %0) <{dimension_numbers = #stablehlo.gather<collapsed_slice_dims = [0], start_index_map = [0], index_vector_dim = 1>, indices_are_sorted = false, slice_sizes = array<i64: 1>}> : (tensor<68xf32>, tensor<16384x1xi64>) -> tensor<16384xf32>\n    return %1 : tensor<16384xf32>\n  }\n  func.func private @_where_3(%arg0: tensor<16384xi1>, %arg1: tensor<16384xf32>, %arg2: tensor<i64>) -> tensor<16384xf32> {\n    %0 = stablehlo.convert %arg2 : (tensor<i64>) -> tensor<f32>\n    %1 = stablehlo.broadcast_in_dim %0, dims = [] : (tensor<f32>) -> tensor<16384xf32>\n    %2 = stablehlo.select %arg0, %arg1, %1 : tensor<16384xi1>, tensor<16384xf32>\n    return %2 : tensor<16384xf32>\n  }\n}\n", "size": {"preferred_dialect": "stablehlo", "preferred_text": {"chars": 20401, "lines": 230, "utf8_bytes": 20401}, "stablehlo_text": {"chars": 20401, "lines": 230, "utf8_bytes": 20401}, "hlo_text": {"chars": 29405, "lines": 397, "utf8_bytes": 29405}, "hlo_proto_bytes": 64458}, "compiled": {"available": true, "cost_analysis": {"utilization1{}": 45.0, "bytes accessed0{}": 131660.0, "transcendentals": 16384.0, "utilization7{}": 10.0, "bytes accessedout{}": 328990.0, "bytes accessed2{}": 156.0, "utilization5{}": 12.0, "flops": 327754.0, "bytes accessed3{}": 262168.0, "bytes accessed1{}": 66096.0, "utilization2{}": 32.0, "utilization4{}": 13.0, "bytes accessed": 789090.0, "utilization10{}": 8.0, "utilization0{}": 147.0, "bytes accessed6{}": 12.0, "bytes accessed4{}": 24.0, "utilization9{}": 8.0, "bytes accessed5{}": 16.0, "utilization3{}": 17.0, "utilization8{}": 10.0, "utilization13{}": 4.0, "utilization6{}": 11.0, "utilization12{}": 6.0, "utilization11{}": 6.0}, "memory_analysis": {"generated_code_size_in_bytes": 0, "argument_size_in_bytes": 904, "output_size_in_bytes": 4, "alias_size_in_bytes": 0, "temp_size_in_bytes": 264260, "host_generated_code_size_in_bytes": 0, "host_argument_size_in_bytes": 0, "host_output_size_in_bytes": 0, "host_alias_size_in_bytes": 0, "host_temp_size_in_bytes": 0}}}
