{"case": "hlo", "tag": "smolyak_single_integral", "dialect": "stablehlo", "hlo": "module @jit__compiled_single_integral attributes {mhlo.num_partitions = 1 : i32, mhlo.num_replicas = 1 : i32} {\n  func.func public @main(%arg0: tensor<2xf16>, %arg1: tensor<4xf16>, %arg2: tensor<4xf16>, %arg3: tensor<2xi64>, %arg4: tensor<2xi64>, %arg5: tensor<1x2xi32>) -> (tensor<1xf16> {jax.result_info = \"result\"}) {\n    %0 = call @_compiled_single_integral(%arg0, %arg1, %arg2, %arg3, %arg4, %arg5) : (tensor<2xf16>, tensor<4xf16>, tensor<4xf16>, tensor<2xi64>, tensor<2xi64>, tensor<1x2xi32>) -> tensor<1xf16>\n    return %0 : tensor<1xf16>\n  }\n  func.func private @_compiled_single_integral(%arg0: tensor<2xf16>, %arg1: tensor<4xf16>, %arg2: tensor<4xf16>, %arg3: tensor<2xi64>, %arg4: tensor<2xi64>, %arg5: tensor<1x2xi32>) -> tensor<1xf16> {\n    %cst = stablehlo.constant dense<0.000000e+00> : tensor<f16>\n    %0 = stablehlo.broadcast_in_dim %cst, dims = [] : (tensor<f16>) -> tensor<2xf16>\n    %1 = stablehlo.broadcast_in_dim %cst, dims = [] : (tensor<f16>) -> tensor<1xf16>\n    %c = stablehlo.constant dense<0> : tensor<i64>\n    %c_0 = stablehlo.constant dense<0> : tensor<i64>\n    %2:10 = stablehlo.while(%iterArg = %arg5, %iterArg_1 = %arg3, %iterArg_2 = %arg4, %iterArg_3 = %arg1, %iterArg_4 = %arg2, %iterArg_5 = %0, %iterArg_6 = %arg0, %iterArg_7 = %c_0, %iterArg_8 = %c, %iterArg_9 = %1) : tensor<1x2xi32>, tensor<2xi64>, tensor<2xi64>, tensor<4xf16>, tensor<4xf16>, tensor<2xf16>, tensor<2xf16>, tensor<i64>, tensor<i64>, tensor<1xf16>\n     cond {\n      %c_10 = stablehlo.constant dense<1> : tensor<i64>\n      %3 = stablehlo.compare  LT, %iterArg_7, %c_10,  SIGNED : (tensor<i64>, tensor<i64>) -> tensor<i1>\n      stablehlo.return %3 : tensor<i1>\n    } do {\n      %3:2 = func.call @None(%iterArg, %iterArg_1, %iterArg_2, %iterArg_3, %iterArg_4, %iterArg_5, %iterArg_6, %iterArg_8, %iterArg_9) : (tensor<1x2xi32>, tensor<2xi64>, tensor<2xi64>, tensor<4xf16>, tensor<4xf16>, tensor<2xf16>, tensor<2xf16>, tensor<i64>, tensor<1xf16>) -> (tensor<i64>, tensor<1xf16>)\n      %c_10 = stablehlo.constant dense<1> : tensor<i64>\n      %4 = stablehlo.add %iterArg_7, %c_10 : tensor<i64>\n      stablehlo.return %iterArg, %iterArg_1, %iterArg_2, %iterArg_3, %iterArg_4, %iterArg_5, %iterArg_6, %4, %3#0, %3#1 : tensor<1x2xi32>, tensor<2xi64>, tensor<2xi64>, tensor<4xf16>, tensor<4xf16>, tensor<2xf16>, tensor<2xf16>, tensor<i64>, tensor<i64>, tensor<1xf16>\n    }\n    return %2#9 : tensor<1xf16>\n  }\n  func.func private @None(%arg0: tensor<1x2xi32>, %arg1: tensor<2xi64>, %arg2: tensor<2xi64>, %arg3: tensor<4xf16>, %arg4: tensor<4xf16>, %arg5: tensor<2xf16>, %arg6: tensor<2xf16>, %arg7: tensor<i64>, %arg8: tensor<1xf16>) -> (tensor<i64>, tensor<1xf16>) {\n    %c = stablehlo.constant dense<1> : tensor<i64>\n    %0 = stablehlo.add %arg7, %c : tensor<i64>\n    %c_0 = stablehlo.constant dense<0> : tensor<i64>\n    %1 = stablehlo.compare  LT, %arg7, %c_0,  SIGNED : (tensor<i64>, tensor<i64>) -> tensor<i1>\n    %2 = stablehlo.convert %arg7 : tensor<i64>\n    %c_1 = stablehlo.constant dense<1> : tensor<i64>\n    %3 = stablehlo.add %2, %c_1 : tensor<i64>\n    %4 = stablehlo.select %1, %3, %arg7 : tensor<i1>, tensor<i64>\n    %5 = stablehlo.dynamic_slice %arg0, %4, %c_0, sizes = [1, 2] : (tensor<1x2xi32>, tensor<i64>, tensor<i64>) -> tensor<1x2xi32>\n    %6 = stablehlo.reshape %5 : (tensor<1x2xi32>) -> tensor<2xi32>\n    %7 = stablehlo.slice %6 [0:1] : (tensor<2xi32>) -> tensor<1xi32>\n    %8 = stablehlo.reshape %7 : (tensor<1xi32>) -> tensor<i32>\n    %c_2 = stablehlo.constant dense<1> : tensor<i32>\n    %9 = stablehlo.subtract %8, %c_2 : tensor<i32>\n    %10 = call @_take(%arg1, %9) : (tensor<2xi64>, tensor<i32>) -> tensor<i64>\n    %11 = call @_take(%arg2, %9) : (tensor<2xi64>, tensor<i32>) -> tensor<i64>\n    %cst = stablehlo.constant dense<1.000000e+00> : tensor<f16>\n    %12:12 = stablehlo.while(%iterArg = %10, %iterArg_3 = %arg3, %iterArg_4 = %arg4, %iterArg_5 = %arg5, %iterArg_6 = %cst, %iterArg_7 = %6, %iterArg_8 = %arg1, %iterArg_9 = %arg2, %iterArg_10 = %arg6, %iterArg_11 = %c_0, %iterArg_12 = %11, %iterArg_13 = %arg8) : tensor<i64>, tensor<4xf16>, tensor<4xf16>, tensor<2xf16>, tensor<f16>, tensor<2xi32>, tensor<2xi64>, tensor<2xi64>, tensor<2xf16>, tensor<i64>, tensor<i64>, tensor<1xf16>\n     cond {\n      %13 = stablehlo.compare  LT, %iterArg_11, %iterArg_12,  SIGNED : (tensor<i64>, tensor<i64>) -> tensor<i1>\n      stablehlo.return %13 : tensor<i1>\n    } do {\n      %c_14 = stablehlo.constant dense<1> : tensor<i64>\n      %13 = stablehlo.add %iterArg_11, %c_14 : tensor<i64>\n      %14 = stablehlo.convert %iterArg_11 : tensor<i64>\n      %15 = stablehlo.add %iterArg, %14 : tensor<i64>\n      %16 = func.call @_take_0(%iterArg_3, %15) : (tensor<4xf16>, tensor<i64>) -> tensor<f16>\n      %17 = func.call @_take_0(%iterArg_4, %15) : (tensor<4xf16>, tensor<i64>) -> tensor<f16>\n      %18 = stablehlo.reshape %16 : (tensor<f16>) -> tensor<1xf16>\n      %19 = stablehlo.slice %iterArg_5 [0:0] : (tensor<2xf16>) -> tensor<0xf16>\n      %20 = stablehlo.slice %iterArg_5 [1:2] : (tensor<2xf16>) -> tensor<1xf16>\n      %21 = stablehlo.concatenate %19, %18, %20, dim = 0 : (tensor<0xf16>, tensor<1xf16>, tensor<1xf16>) -> tensor<2xf16>\n      %22 = stablehlo.multiply %iterArg_6, %17 : tensor<f16>\n      %23 = stablehlo.slice %iterArg_7 [1:2] : (tensor<2xi32>) -> tensor<1xi32>\n      %24 = stablehlo.reshape %23 : (tensor<1xi32>) -> tensor<i32>\n      %c_15 = stablehlo.constant dense<1> : tensor<i32>\n      %25 = stablehlo.subtract %24, %c_15 : tensor<i32>\n      %26 = func.call @_take_1(%iterArg_8, %25) : (tensor<2xi64>, tensor<i32>) -> tensor<i64>\n      %27 = func.call @_take_1(%iterArg_9, %25) : (tensor<2xi64>, tensor<i32>) -> tensor<i64>\n      %28 = stablehlo.iota dim = 0 : tensor<16384xi64>\n      %c_16 = stablehlo.constant dense<16384> : tensor<i64>\n      %29 = stablehlo.add %27, %c_16 : tensor<i64>\n      %c_17 = stablehlo.constant dense<1> : tensor<i64>\n      %30 = stablehlo.subtract %29, %c_17 : tensor<i64>\n      %c_18 = stablehlo.constant dense<16384> : tensor<i64>\n      %31 = func.call @floor_divide(%30, %c_18) : (tensor<i64>, tensor<i64>) -> tensor<i64>\n      %c_19 = stablehlo.constant dense<0> : tensor<i64>\n      %32:11 = stablehlo.while(%iterArg_20 = %28, %iterArg_21 = %27, %iterArg_22 = %26, %iterArg_23 = %iterArg_3, %iterArg_24 = %iterArg_4, %iterArg_25 = %21, %iterArg_26 = %iterArg_10, %iterArg_27 = %22, %iterArg_28 = %c_19, %iterArg_29 = %31, %iterArg_30 = %iterArg_13) : tensor<16384xi64>, tensor<i64>, tensor<i64>, tensor<4xf16>, tensor<4xf16>, tensor<2xf16>, tensor<2xf16>, tensor<f16>, tensor<i64>, tensor<i64>, tensor<1xf16>\n       cond {\n        %33 = stablehlo.compare  LT, %iterArg_28, %iterArg_29,  SIGNED : (tensor<i64>, tensor<i64>) -> tensor<i1>\n        stablehlo.return %33 : tensor<i1>\n      } do {\n        %c_31 = stablehlo.constant dense<1> : tensor<i64>\n        %33 = stablehlo.add %iterArg_28, %c_31 : tensor<i64>\n        %34 = stablehlo.convert %iterArg_28 : tensor<i64>\n        %c_32 = stablehlo.constant dense<16384> : tensor<i64>\n        %35 = stablehlo.multiply %34, %c_32 : tensor<i64>\n        %36 = stablehlo.broadcast_in_dim %35, dims = [] : (tensor<i64>) -> tensor<16384xi64>\n        %37 = stablehlo.add %36, %iterArg_20 : tensor<16384xi64>\n        %38 = stablehlo.broadcast_in_dim %iterArg_21, dims = [] : (tensor<i64>) -> tensor<16384xi64>\n        %39 = stablehlo.compare  LT, %37, %38,  SIGNED : (tensor<16384xi64>, tensor<16384xi64>) -> tensor<16384xi1>\n        %c_33 = stablehlo.constant dense<0> : tensor<i64>\n        %40 = func.call @_where_2(%39, %37, %c_33) : (tensor<16384xi1>, tensor<16384xi64>, tensor<i64>) -> tensor<16384xi64>\n        %41 = stablehlo.broadcast_in_dim %iterArg_22, dims = [] : (tensor<i64>) -> tensor<16384xi64>\n        %42 = stablehlo.add %41, %40 : tensor<16384xi64>\n        %43 = func.call @_take_3(%iterArg_23, %42) : (tensor<4xf16>, tensor<16384xi64>) -> tensor<16384xf16>\n        %44 = func.call @_take_3(%iterArg_24, %42) : (tensor<4xf16>, tensor<16384xi64>) -> tensor<16384xf16>\n        %45 = stablehlo.reshape %43 : (tensor<16384xf16>) -> tensor<16384x1xf16>\n        %46 = stablehlo.slice %iterArg_25 [0:1] : (tensor<2xf16>) -> tensor<1xf16>\n        %47 = stablehlo.slice %iterArg_25 [2:2] : (tensor<2xf16>) -> tensor<0xf16>\n        %48 = stablehlo.broadcast_in_dim %46, dims = [1] : (tensor<1xf16>) -> tensor<16384x1xf16>\n        %49 = stablehlo.broadcast_in_dim %47, dims = [1] : (tensor<0xf16>) -> tensor<16384x0xf16>\n        %50 = stablehlo.concatenate %48, %45, %49, dim = 1 : (tensor<16384x1xf16>, tensor<16384x1xf16>, tensor<16384x0xf16>) -> tensor<16384x2xf16>\n        %51 = stablehlo.transpose %50, dims = [1, 0] : (tensor<16384x2xf16>) -> tensor<2x16384xf16>\n        %52 = stablehlo.dot_general %iterArg_26, %51, contracting_dims = [0] x [0], precision = [DEFAULT, DEFAULT] : (tensor<2xf16>, tensor<2x16384xf16>) -> tensor<16384xf16>\n        %53 = stablehlo.exponential %52 : tensor<16384xf16>\n        %54 = stablehlo.broadcast_in_dim %53, dims = [0] : (tensor<16384xf16>) -> tensor<16384x1xf16>\n        %55 = stablehlo.transpose %54, dims = [1, 0] : (tensor<16384x1xf16>) -> tensor<1x16384xf16>\n        %56 = stablehlo.broadcast_in_dim %iterArg_27, dims = [] : (tensor<f16>) -> tensor<16384xf16>\n        %57 = stablehlo.multiply %56, %44 : tensor<16384xf16>\n        %58 = func.call @_where_4(%39, %57, %c_33) : (tensor<16384xi1>, tensor<16384xf16>, tensor<i64>) -> tensor<16384xf16>\n        %59 = stablehlo.dot_general %55, %58, contracting_dims = [1] x [0], precision = [DEFAULT, DEFAULT] : (tensor<1x16384xf16>, tensor<16384xf16>) -> tensor<1xf16>\n        %60 = stablehlo.add %iterArg_30, %59 : tensor<1xf16>\n        stablehlo.return %iterArg_20, %iterArg_21, %iterArg_22, %iterArg_23, %iterArg_24, %iterArg_25, %iterArg_26, %iterArg_27, %33, %iterArg_29, %60 : tensor<16384xi64>, tensor<i64>, tensor<i64>, tensor<4xf16>, tensor<4xf16>, tensor<2xf16>, tensor<2xf16>, tensor<f16>, tensor<i64>, tensor<i64>, tensor<1xf16>\n      }\n      stablehlo.return %iterArg, %iterArg_3, %iterArg_4, %iterArg_5, %iterArg_6, %iterArg_7, %iterArg_8, %iterArg_9, %iterArg_10, %13, %iterArg_12, %32#10 : tensor<i64>, tensor<4xf16>, tensor<4xf16>, tensor<2xf16>, tensor<f16>, tensor<2xi32>, tensor<2xi64>, tensor<2xi64>, tensor<2xf16>, tensor<i64>, tensor<i64>, tensor<1xf16>\n    }\n    return %0, %12#11 : tensor<i64>, tensor<1xf16>\n  }\n  func.func private @_take(%arg0: tensor<2xi64>, %arg1: tensor<i32>) -> tensor<i64> {\n    %0 = stablehlo.broadcast_in_dim %arg1, dims = [] : (tensor<i32>) -> tensor<1xi32>\n    %1 = \"stablehlo.gather\"(%arg0, %0) <{dimension_numbers = #stablehlo.gather<collapsed_slice_dims = [0], start_index_map = [0]>, indices_are_sorted = false, slice_sizes = array<i64: 1>}> : (tensor<2xi64>, tensor<1xi32>) -> tensor<i64>\n    return %1 : tensor<i64>\n  }\n  func.func private @_take_0(%arg0: tensor<4xf16>, %arg1: tensor<i64>) -> tensor<f16> {\n    %0 = stablehlo.broadcast_in_dim %arg1, dims = [] : (tensor<i64>) -> tensor<1xi64>\n    %1 = \"stablehlo.gather\"(%arg0, %0) <{dimension_numbers = #stablehlo.gather<collapsed_slice_dims = [0], start_index_map = [0]>, indices_are_sorted = false, slice_sizes = array<i64: 1>}> : (tensor<4xf16>, tensor<1xi64>) -> tensor<f16>\n    return %1 : tensor<f16>\n  }\n  func.func private @_take_1(%arg0: tensor<2xi64>, %arg1: tensor<i32>) -> tensor<i64> {\n    %0 = stablehlo.broadcast_in_dim %arg1, dims = [] : (tensor<i32>) -> tensor<1xi32>\n    %1 = \"stablehlo.gather\"(%arg0, %0) <{dimension_numbers = #stablehlo.gather<collapsed_slice_dims = [0], start_index_map = [0]>, indices_are_sorted = false, slice_sizes = array<i64: 1>}> : (tensor<2xi64>, tensor<1xi32>) -> tensor<i64>\n    return %1 : tensor<i64>\n  }\n  func.func private @floor_divide(%arg0: tensor<i64>, %arg1: tensor<i64>) -> tensor<i64> {\n    %0 = stablehlo.convert %arg1 : tensor<i64>\n    %1 = stablehlo.divide %arg0, %0 : tensor<i64>\n    %2 = stablehlo.sign %arg0 : tensor<i64>\n    %3 = stablehlo.sign %0 : tensor<i64>\n    %4 = stablehlo.compare  NE, %2, %3,  SIGNED : (tensor<i64>, tensor<i64>) -> tensor<i1>\n    %5 = stablehlo.remainder %arg0, %0 : tensor<i64>\n    %c = stablehlo.constant dense<0> : tensor<i64>\n    %6 = stablehlo.compare  NE, %5, %c,  SIGNED : (tensor<i64>, tensor<i64>) -> tensor<i1>\n    %7 = stablehlo.and %4, %6 : tensor<i1>\n    %c_0 = stablehlo.constant dense<1> : tensor<i64>\n    %8 = stablehlo.subtract %1, %c_0 : tensor<i64>\n    %9 = call @_where(%7, %8, %1) : (tensor<i1>, tensor<i64>, tensor<i64>) -> tensor<i64>\n    return %9 : tensor<i64>\n  }\n  func.func private @_where(%arg0: tensor<i1>, %arg1: tensor<i64>, %arg2: tensor<i64>) -> tensor<i64> {\n    %0 = stablehlo.select %arg0, %arg1, %arg2 : tensor<i1>, tensor<i64>\n    return %0 : tensor<i64>\n  }\n  func.func private @_where_2(%arg0: tensor<16384xi1>, %arg1: tensor<16384xi64>, %arg2: tensor<i64>) -> tensor<16384xi64> {\n    %0 = stablehlo.convert %arg2 : tensor<i64>\n    %1 = stablehlo.broadcast_in_dim %0, dims = [] : (tensor<i64>) -> tensor<16384xi64>\n    %2 = stablehlo.select %arg0, %arg1, %1 : tensor<16384xi1>, tensor<16384xi64>\n    return %2 : tensor<16384xi64>\n  }\n  func.func private @_take_3(%arg0: tensor<4xf16>, %arg1: tensor<16384xi64>) -> tensor<16384xf16> {\n    %0 = stablehlo.broadcast_in_dim %arg1, dims = [0] : (tensor<16384xi64>) -> tensor<16384x1xi64>\n    %1 = \"stablehlo.gather\"(%arg0, %0) <{dimension_numbers = #stablehlo.gather<collapsed_slice_dims = [0], start_index_map = [0], index_vector_dim = 1>, indices_are_sorted = false, slice_sizes = array<i64: 1>}> : (tensor<4xf16>, tensor<16384x1xi64>) -> tensor<16384xf16>\n    return %1 : tensor<16384xf16>\n  }\n  func.func private @_where_4(%arg0: tensor<16384xi1>, %arg1: tensor<16384xf16>, %arg2: tensor<i64>) -> tensor<16384xf16> {\n    %0 = stablehlo.convert %arg2 : (tensor<i64>) -> tensor<f16>\n    %1 = stablehlo.broadcast_in_dim %0, dims = [] : (tensor<f16>) -> tensor<16384xf16>\n    %2 = stablehlo.select %arg0, %arg1, %1 : tensor<16384xi1>, tensor<16384xf16>\n    return %2 : tensor<16384xf16>\n  }\n}\n", "size": {"preferred_dialect": "stablehlo", "preferred_text": {"chars": 13984, "lines": 166, "utf8_bytes": 13984}, "stablehlo_text": {"chars": 13984, "lines": 166, "utf8_bytes": 13984}, "hlo_text": {"chars": 16810, "lines": 255, "utf8_bytes": 16810}, "hlo_proto_bytes": 39976}, "compiled": {"available": true, "cost_analysis": {"utilization7{}": 5.0, "utilization9{}": 4.0, "utilization10{}": 2.0, "bytes accessedout{2}": 8.0, "bytes accessedout{0}": 18.0, "bytes accessed3{}": 131082.0, "bytes accessedout{1}": 18.0, "bytes accessed2{}": 131104.0, "utilization2{}": 10.0, "bytes accessed5{}": 16.0, "utilization0{}": 70.0, "bytes accessedout{}": 197108.0, "bytes accessed4{}": 10.0, "bytes accessed1{}": 66.0, "flops": 311322.0, "utilization3{}": 8.0, "utilization8{}": 4.0, "transcendentals": 16384.0, "utilization4{}": 7.0, "utilization1{}": 17.0, "bytes accessed": 524990.0, "bytes accessed6{}": 16.0, "bytes accessed0{}": 65608.0, "utilization5{}": 7.0, "utilization6{}": 7.0}, "memory_analysis": {"generated_code_size_in_bytes": 22194, "argument_size_in_bytes": 60, "output_size_in_bytes": 2, "alias_size_in_bytes": 0, "temp_size_in_bytes": 168024, "host_generated_code_size_in_bytes": 0, "host_argument_size_in_bytes": 0, "host_output_size_in_bytes": 0, "host_alias_size_in_bytes": 0, "host_temp_size_in_bytes": 0}}}
{"case": "hlo", "tag": "smolyak_repeated_integral", "dialect": "stablehlo", "hlo": "module @jit__compiled_repeated_integral attributes {mhlo.num_partitions = 1 : i32, mhlo.num_replicas = 1 : i32} {\n  func.func public @main(%arg0: tensor<2xf16>, %arg1: tensor<4xf16>, %arg2: tensor<4xf16>, %arg3: tensor<2xi64>, %arg4: tensor<2xi64>, %arg5: tensor<1x2xi32>, %arg6: tensor<i64>) -> (tensor<1xf16> {jax.result_info = \"result\"}) {\n    %0 = call @_compiled_repeated_integral(%arg0, %arg1, %arg2, %arg3, %arg4, %arg5, %arg6) : (tensor<2xf16>, tensor<4xf16>, tensor<4xf16>, tensor<2xi64>, tensor<2xi64>, tensor<1x2xi32>, tensor<i64>) -> tensor<1xf16>\n    return %0 : tensor<1xf16>\n  }\n  func.func private @_compiled_repeated_integral(%arg0: tensor<2xf16>, %arg1: tensor<4xf16>, %arg2: tensor<4xf16>, %arg3: tensor<2xi64>, %arg4: tensor<2xi64>, %arg5: tensor<1x2xi32>, %arg6: tensor<i64>) -> tensor<1xf16> {\n    %cst = stablehlo.constant dense<0.000000e+00> : tensor<f16>\n    %0 = stablehlo.broadcast_in_dim %cst, dims = [] : (tensor<f16>) -> tensor<1xf16>\n    %c = stablehlo.constant dense<0> : tensor<i64>\n    %1:9 = stablehlo.while(%iterArg = %arg0, %iterArg_0 = %arg5, %iterArg_1 = %arg3, %iterArg_2 = %arg4, %iterArg_3 = %arg1, %iterArg_4 = %arg2, %iterArg_5 = %c, %iterArg_6 = %arg6, %iterArg_7 = %0) : tensor<2xf16>, tensor<1x2xi32>, tensor<2xi64>, tensor<2xi64>, tensor<4xf16>, tensor<4xf16>, tensor<i64>, tensor<i64>, tensor<1xf16>\n     cond {\n      %5 = stablehlo.compare  LT, %iterArg_5, %iterArg_6,  SIGNED : (tensor<i64>, tensor<i64>) -> tensor<i1>\n      stablehlo.return %5 : tensor<i1>\n    } do {\n      %c_8 = stablehlo.constant dense<1> : tensor<i64>\n      %5 = stablehlo.add %iterArg_5, %c_8 : tensor<i64>\n      %cst_9 = stablehlo.constant dense<0.000000e+00> : tensor<f16>\n      %6 = stablehlo.broadcast_in_dim %cst_9, dims = [] : (tensor<f16>) -> tensor<2xf16>\n      %7 = stablehlo.dot_general %iterArg, %6, contracting_dims = [0] x [0], precision = [DEFAULT, DEFAULT] : (tensor<2xf16>, tensor<2xf16>) -> tensor<f16>\n      %8 = stablehlo.exponential %7 : tensor<f16>\n      %9 = stablehlo.broadcast_in_dim %8, dims = [] : (tensor<f16>) -> tensor<1xf16>\n      %10 = stablehlo.broadcast_in_dim %cst_9, dims = [] : (tensor<f16>) -> tensor<1xf16>\n      %c_10 = stablehlo.constant dense<0> : tensor<i64>\n      %c_11 = stablehlo.constant dense<0> : tensor<i64>\n      %11:10 = stablehlo.while(%iterArg_12 = %iterArg_0, %iterArg_13 = %iterArg_1, %iterArg_14 = %iterArg_2, %iterArg_15 = %iterArg_3, %iterArg_16 = %iterArg_4, %iterArg_17 = %6, %iterArg_18 = %iterArg, %iterArg_19 = %c_11, %iterArg_20 = %c_10, %iterArg_21 = %10) : tensor<1x2xi32>, tensor<2xi64>, tensor<2xi64>, tensor<4xf16>, tensor<4xf16>, tensor<2xf16>, tensor<2xf16>, tensor<i64>, tensor<i64>, tensor<1xf16>\n       cond {\n        %c_22 = stablehlo.constant dense<1> : tensor<i64>\n        %13 = stablehlo.compare  LT, %iterArg_19, %c_22,  SIGNED : (tensor<i64>, tensor<i64>) -> tensor<i1>\n        stablehlo.return %13 : tensor<i1>\n      } do {\n        %13:2 = func.call @None(%iterArg_12, %iterArg_13, %iterArg_14, %iterArg_15, %iterArg_16, %iterArg_17, %iterArg_18, %iterArg_20, %iterArg_21) : (tensor<1x2xi32>, tensor<2xi64>, tensor<2xi64>, tensor<4xf16>, tensor<4xf16>, tensor<2xf16>, tensor<2xf16>, tensor<i64>, tensor<1xf16>) -> (tensor<i64>, tensor<1xf16>)\n        %c_22 = stablehlo.constant dense<1> : tensor<i64>\n        %14 = stablehlo.add %iterArg_19, %c_22 : tensor<i64>\n        stablehlo.return %iterArg_12, %iterArg_13, %iterArg_14, %iterArg_15, %iterArg_16, %iterArg_17, %iterArg_18, %14, %13#0, %13#1 : tensor<1x2xi32>, tensor<2xi64>, tensor<2xi64>, tensor<4xf16>, tensor<4xf16>, tensor<2xf16>, tensor<2xf16>, tensor<i64>, tensor<i64>, tensor<1xf16>\n      }\n      %12 = stablehlo.add %iterArg_7, %11#9 : tensor<1xf16>\n      stablehlo.return %iterArg, %iterArg_0, %iterArg_1, %iterArg_2, %iterArg_3, %iterArg_4, %5, %iterArg_6, %12 : tensor<2xf16>, tensor<1x2xi32>, tensor<2xi64>, tensor<2xi64>, tensor<4xf16>, tensor<4xf16>, tensor<i64>, tensor<i64>, tensor<1xf16>\n    }\n    %2 = stablehlo.convert %arg6 : (tensor<i64>) -> tensor<f16>\n    %3 = stablehlo.broadcast_in_dim %2, dims = [] : (tensor<f16>) -> tensor<1xf16>\n    %4 = stablehlo.divide %1#8, %3 : tensor<1xf16>\n    return %4 : tensor<1xf16>\n  }\n  func.func private @None(%arg0: tensor<1x2xi32>, %arg1: tensor<2xi64>, %arg2: tensor<2xi64>, %arg3: tensor<4xf16>, %arg4: tensor<4xf16>, %arg5: tensor<2xf16>, %arg6: tensor<2xf16>, %arg7: tensor<i64>, %arg8: tensor<1xf16>) -> (tensor<i64>, tensor<1xf16>) {\n    %c = stablehlo.constant dense<1> : tensor<i64>\n    %0 = stablehlo.add %arg7, %c : tensor<i64>\n    %c_0 = stablehlo.constant dense<0> : tensor<i64>\n    %1 = stablehlo.compare  LT, %arg7, %c_0,  SIGNED : (tensor<i64>, tensor<i64>) -> tensor<i1>\n    %2 = stablehlo.convert %arg7 : tensor<i64>\n    %c_1 = stablehlo.constant dense<1> : tensor<i64>\n    %3 = stablehlo.add %2, %c_1 : tensor<i64>\n    %4 = stablehlo.select %1, %3, %arg7 : tensor<i1>, tensor<i64>\n    %5 = stablehlo.dynamic_slice %arg0, %4, %c_0, sizes = [1, 2] : (tensor<1x2xi32>, tensor<i64>, tensor<i64>) -> tensor<1x2xi32>\n    %6 = stablehlo.reshape %5 : (tensor<1x2xi32>) -> tensor<2xi32>\n    %7 = stablehlo.slice %6 [0:1] : (tensor<2xi32>) -> tensor<1xi32>\n    %8 = stablehlo.reshape %7 : (tensor<1xi32>) -> tensor<i32>\n    %c_2 = stablehlo.constant dense<1> : tensor<i32>\n    %9 = stablehlo.subtract %8, %c_2 : tensor<i32>\n    %10 = call @_take(%arg1, %9) : (tensor<2xi64>, tensor<i32>) -> tensor<i64>\n    %11 = call @_take(%arg2, %9) : (tensor<2xi64>, tensor<i32>) -> tensor<i64>\n    %cst = stablehlo.constant dense<1.000000e+00> : tensor<f16>\n    %12:12 = stablehlo.while(%iterArg = %10, %iterArg_3 = %arg3, %iterArg_4 = %arg4, %iterArg_5 = %arg5, %iterArg_6 = %cst, %iterArg_7 = %6, %iterArg_8 = %arg1, %iterArg_9 = %arg2, %iterArg_10 = %arg6, %iterArg_11 = %c_0, %iterArg_12 = %11, %iterArg_13 = %arg8) : tensor<i64>, tensor<4xf16>, tensor<4xf16>, tensor<2xf16>, tensor<f16>, tensor<2xi32>, tensor<2xi64>, tensor<2xi64>, tensor<2xf16>, tensor<i64>, tensor<i64>, tensor<1xf16>\n     cond {\n      %13 = stablehlo.compare  LT, %iterArg_11, %iterArg_12,  SIGNED : (tensor<i64>, tensor<i64>) -> tensor<i1>\n      stablehlo.return %13 : tensor<i1>\n    } do {\n      %c_14 = stablehlo.constant dense<1> : tensor<i64>\n      %13 = stablehlo.add %iterArg_11, %c_14 : tensor<i64>\n      %14 = stablehlo.convert %iterArg_11 : tensor<i64>\n      %15 = stablehlo.add %iterArg, %14 : tensor<i64>\n      %16 = func.call @_take_0(%iterArg_3, %15) : (tensor<4xf16>, tensor<i64>) -> tensor<f16>\n      %17 = func.call @_take_0(%iterArg_4, %15) : (tensor<4xf16>, tensor<i64>) -> tensor<f16>\n      %18 = stablehlo.reshape %16 : (tensor<f16>) -> tensor<1xf16>\n      %19 = stablehlo.slice %iterArg_5 [0:0] : (tensor<2xf16>) -> tensor<0xf16>\n      %20 = stablehlo.slice %iterArg_5 [1:2] : (tensor<2xf16>) -> tensor<1xf16>\n      %21 = stablehlo.concatenate %19, %18, %20, dim = 0 : (tensor<0xf16>, tensor<1xf16>, tensor<1xf16>) -> tensor<2xf16>\n      %22 = stablehlo.multiply %iterArg_6, %17 : tensor<f16>\n      %23 = stablehlo.slice %iterArg_7 [1:2] : (tensor<2xi32>) -> tensor<1xi32>\n      %24 = stablehlo.reshape %23 : (tensor<1xi32>) -> tensor<i32>\n      %c_15 = stablehlo.constant dense<1> : tensor<i32>\n      %25 = stablehlo.subtract %24, %c_15 : tensor<i32>\n      %26 = func.call @_take(%iterArg_8, %25) : (tensor<2xi64>, tensor<i32>) -> tensor<i64>\n      %27 = func.call @_take(%iterArg_9, %25) : (tensor<2xi64>, tensor<i32>) -> tensor<i64>\n      %28 = stablehlo.iota dim = 0 : tensor<16384xi64>\n      %c_16 = stablehlo.constant dense<16384> : tensor<i64>\n      %29 = stablehlo.add %27, %c_16 : tensor<i64>\n      %c_17 = stablehlo.constant dense<1> : tensor<i64>\n      %30 = stablehlo.subtract %29, %c_17 : tensor<i64>\n      %c_18 = stablehlo.constant dense<16384> : tensor<i64>\n      %31 = func.call @floor_divide(%30, %c_18) : (tensor<i64>, tensor<i64>) -> tensor<i64>\n      %c_19 = stablehlo.constant dense<0> : tensor<i64>\n      %32:11 = stablehlo.while(%iterArg_20 = %28, %iterArg_21 = %27, %iterArg_22 = %26, %iterArg_23 = %iterArg_3, %iterArg_24 = %iterArg_4, %iterArg_25 = %21, %iterArg_26 = %iterArg_10, %iterArg_27 = %22, %iterArg_28 = %c_19, %iterArg_29 = %31, %iterArg_30 = %iterArg_13) : tensor<16384xi64>, tensor<i64>, tensor<i64>, tensor<4xf16>, tensor<4xf16>, tensor<2xf16>, tensor<2xf16>, tensor<f16>, tensor<i64>, tensor<i64>, tensor<1xf16>\n       cond {\n        %33 = stablehlo.compare  LT, %iterArg_28, %iterArg_29,  SIGNED : (tensor<i64>, tensor<i64>) -> tensor<i1>\n        stablehlo.return %33 : tensor<i1>\n      } do {\n        %c_31 = stablehlo.constant dense<1> : tensor<i64>\n        %33 = stablehlo.add %iterArg_28, %c_31 : tensor<i64>\n        %34 = stablehlo.convert %iterArg_28 : tensor<i64>\n        %c_32 = stablehlo.constant dense<16384> : tensor<i64>\n        %35 = stablehlo.multiply %34, %c_32 : tensor<i64>\n        %36 = stablehlo.broadcast_in_dim %35, dims = [] : (tensor<i64>) -> tensor<16384xi64>\n        %37 = stablehlo.add %36, %iterArg_20 : tensor<16384xi64>\n        %38 = stablehlo.broadcast_in_dim %iterArg_21, dims = [] : (tensor<i64>) -> tensor<16384xi64>\n        %39 = stablehlo.compare  LT, %37, %38,  SIGNED : (tensor<16384xi64>, tensor<16384xi64>) -> tensor<16384xi1>\n        %c_33 = stablehlo.constant dense<0> : tensor<i64>\n        %40 = func.call @_where_1(%39, %37, %c_33) : (tensor<16384xi1>, tensor<16384xi64>, tensor<i64>) -> tensor<16384xi64>\n        %41 = stablehlo.broadcast_in_dim %iterArg_22, dims = [] : (tensor<i64>) -> tensor<16384xi64>\n        %42 = stablehlo.add %41, %40 : tensor<16384xi64>\n        %43 = func.call @_take_2(%iterArg_23, %42) : (tensor<4xf16>, tensor<16384xi64>) -> tensor<16384xf16>\n        %44 = func.call @_take_2(%iterArg_24, %42) : (tensor<4xf16>, tensor<16384xi64>) -> tensor<16384xf16>\n        %45 = stablehlo.reshape %43 : (tensor<16384xf16>) -> tensor<16384x1xf16>\n        %46 = stablehlo.slice %iterArg_25 [0:1] : (tensor<2xf16>) -> tensor<1xf16>\n        %47 = stablehlo.slice %iterArg_25 [2:2] : (tensor<2xf16>) -> tensor<0xf16>\n        %48 = stablehlo.broadcast_in_dim %46, dims = [1] : (tensor<1xf16>) -> tensor<16384x1xf16>\n        %49 = stablehlo.broadcast_in_dim %47, dims = [1] : (tensor<0xf16>) -> tensor<16384x0xf16>\n        %50 = stablehlo.concatenate %48, %45, %49, dim = 1 : (tensor<16384x1xf16>, tensor<16384x1xf16>, tensor<16384x0xf16>) -> tensor<16384x2xf16>\n        %51 = stablehlo.transpose %50, dims = [1, 0] : (tensor<16384x2xf16>) -> tensor<2x16384xf16>\n        %52 = stablehlo.dot_general %iterArg_26, %51, contracting_dims = [0] x [0], precision = [DEFAULT, DEFAULT] : (tensor<2xf16>, tensor<2x16384xf16>) -> tensor<16384xf16>\n        %53 = stablehlo.exponential %52 : tensor<16384xf16>\n        %54 = stablehlo.broadcast_in_dim %53, dims = [0] : (tensor<16384xf16>) -> tensor<16384x1xf16>\n        %55 = stablehlo.transpose %54, dims = [1, 0] : (tensor<16384x1xf16>) -> tensor<1x16384xf16>\n        %56 = stablehlo.broadcast_in_dim %iterArg_27, dims = [] : (tensor<f16>) -> tensor<16384xf16>\n        %57 = stablehlo.multiply %56, %44 : tensor<16384xf16>\n        %58 = func.call @_where_3(%39, %57, %c_33) : (tensor<16384xi1>, tensor<16384xf16>, tensor<i64>) -> tensor<16384xf16>\n        %59 = stablehlo.dot_general %55, %58, contracting_dims = [1] x [0], precision = [DEFAULT, DEFAULT] : (tensor<1x16384xf16>, tensor<16384xf16>) -> tensor<1xf16>\n        %60 = stablehlo.add %iterArg_30, %59 : tensor<1xf16>\n        stablehlo.return %iterArg_20, %iterArg_21, %iterArg_22, %iterArg_23, %iterArg_24, %iterArg_25, %iterArg_26, %iterArg_27, %33, %iterArg_29, %60 : tensor<16384xi64>, tensor<i64>, tensor<i64>, tensor<4xf16>, tensor<4xf16>, tensor<2xf16>, tensor<2xf16>, tensor<f16>, tensor<i64>, tensor<i64>, tensor<1xf16>\n      }\n      stablehlo.return %iterArg, %iterArg_3, %iterArg_4, %iterArg_5, %iterArg_6, %iterArg_7, %iterArg_8, %iterArg_9, %iterArg_10, %13, %iterArg_12, %32#10 : tensor<i64>, tensor<4xf16>, tensor<4xf16>, tensor<2xf16>, tensor<f16>, tensor<2xi32>, tensor<2xi64>, tensor<2xi64>, tensor<2xf16>, tensor<i64>, tensor<i64>, tensor<1xf16>\n    }\n    return %0, %12#11 : tensor<i64>, tensor<1xf16>\n  }\n  func.func private @_take(%arg0: tensor<2xi64>, %arg1: tensor<i32>) -> tensor<i64> {\n    %0 = stablehlo.broadcast_in_dim %arg1, dims = [] : (tensor<i32>) -> tensor<1xi32>\n    %1 = \"stablehlo.gather\"(%arg0, %0) <{dimension_numbers = #stablehlo.gather<collapsed_slice_dims = [0], start_index_map = [0]>, indices_are_sorted = false, slice_sizes = array<i64: 1>}> : (tensor<2xi64>, tensor<1xi32>) -> tensor<i64>\n    return %1 : tensor<i64>\n  }\n  func.func private @_take_0(%arg0: tensor<4xf16>, %arg1: tensor<i64>) -> tensor<f16> {\n    %0 = stablehlo.broadcast_in_dim %arg1, dims = [] : (tensor<i64>) -> tensor<1xi64>\n    %1 = \"stablehlo.gather\"(%arg0, %0) <{dimension_numbers = #stablehlo.gather<collapsed_slice_dims = [0], start_index_map = [0]>, indices_are_sorted = false, slice_sizes = array<i64: 1>}> : (tensor<4xf16>, tensor<1xi64>) -> tensor<f16>\n    return %1 : tensor<f16>\n  }\n  func.func private @floor_divide(%arg0: tensor<i64>, %arg1: tensor<i64>) -> tensor<i64> {\n    %0 = stablehlo.convert %arg1 : tensor<i64>\n    %1 = stablehlo.divide %arg0, %0 : tensor<i64>\n    %2 = stablehlo.sign %arg0 : tensor<i64>\n    %3 = stablehlo.sign %0 : tensor<i64>\n    %4 = stablehlo.compare  NE, %2, %3,  SIGNED : (tensor<i64>, tensor<i64>) -> tensor<i1>\n    %5 = stablehlo.remainder %arg0, %0 : tensor<i64>\n    %c = stablehlo.constant dense<0> : tensor<i64>\n    %6 = stablehlo.compare  NE, %5, %c,  SIGNED : (tensor<i64>, tensor<i64>) -> tensor<i1>\n    %7 = stablehlo.and %4, %6 : tensor<i1>\n    %c_0 = stablehlo.constant dense<1> : tensor<i64>\n    %8 = stablehlo.subtract %1, %c_0 : tensor<i64>\n    %9 = call @_where(%7, %8, %1) : (tensor<i1>, tensor<i64>, tensor<i64>) -> tensor<i64>\n    return %9 : tensor<i64>\n  }\n  func.func private @_where(%arg0: tensor<i1>, %arg1: tensor<i64>, %arg2: tensor<i64>) -> tensor<i64> {\n    %0 = stablehlo.select %arg0, %arg1, %arg2 : tensor<i1>, tensor<i64>\n    return %0 : tensor<i64>\n  }\n  func.func private @_where_1(%arg0: tensor<16384xi1>, %arg1: tensor<16384xi64>, %arg2: tensor<i64>) -> tensor<16384xi64> {\n    %0 = stablehlo.convert %arg2 : tensor<i64>\n    %1 = stablehlo.broadcast_in_dim %0, dims = [] : (tensor<i64>) -> tensor<16384xi64>\n    %2 = stablehlo.select %arg0, %arg1, %1 : tensor<16384xi1>, tensor<16384xi64>\n    return %2 : tensor<16384xi64>\n  }\n  func.func private @_take_2(%arg0: tensor<4xf16>, %arg1: tensor<16384xi64>) -> tensor<16384xf16> {\n    %0 = stablehlo.broadcast_in_dim %arg1, dims = [0] : (tensor<16384xi64>) -> tensor<16384x1xi64>\n    %1 = \"stablehlo.gather\"(%arg0, %0) <{dimension_numbers = #stablehlo.gather<collapsed_slice_dims = [0], start_index_map = [0], index_vector_dim = 1>, indices_are_sorted = false, slice_sizes = array<i64: 1>}> : (tensor<4xf16>, tensor<16384x1xi64>) -> tensor<16384xf16>\n    return %1 : tensor<16384xf16>\n  }\n  func.func private @_where_3(%arg0: tensor<16384xi1>, %arg1: tensor<16384xf16>, %arg2: tensor<i64>) -> tensor<16384xf16> {\n    %0 = stablehlo.convert %arg2 : (tensor<i64>) -> tensor<f16>\n    %1 = stablehlo.broadcast_in_dim %0, dims = [] : (tensor<f16>) -> tensor<16384xf16>\n    %2 = stablehlo.select %arg0, %arg1, %1 : tensor<16384xi1>, tensor<16384xf16>\n    return %2 : tensor<16384xf16>\n  }\n}\n", "size": {"preferred_dialect": "stablehlo", "preferred_text": {"chars": 15336, "lines": 180, "utf8_bytes": 15336}, "stablehlo_text": {"chars": 15336, "lines": 180, "utf8_bytes": 15336}, "hlo_text": {"chars": 19738, "lines": 289, "utf8_bytes": 19738}, "hlo_proto_bytes": 46709}, "compiled": {"available": true, "cost_analysis": {"bytes accessed4{}": 10.0, "bytes accessedout{}": 197275.0, "utilization4{}": 9.0, "utilization0{}": 90.0, "bytes accessed5{}": 16.0, "bytes accessed2{}": 131104.0, "bytes accessedout{1}": 18.0, "bytes accessedout{0}": 18.0, "bytes accessedout{2}": 8.0, "bytes accessed3{}": 131082.0, "utilization10{}": 2.0, "utilization9{}": 4.0, "utilization2{}": 12.0, "utilization6{}": 9.0, "utilization7{}": 7.0, "bytes accessed6{}": 16.0, "bytes accessed0{}": 65638.0, "utilization5{}": 9.0, "utilization8{}": 6.0, "bytes accessed": 525205.0, "flops": 311327.0, "utilization3{}": 10.0, "transcendentals": 16384.0, "bytes accessed1{}": 92.0, "utilization1{}": 23.0}, "memory_analysis": {"generated_code_size_in_bytes": 27132, "argument_size_in_bytes": 68, "output_size_in_bytes": 2, "alias_size_in_bytes": 0, "temp_size_in_bytes": 168792, "host_generated_code_size_in_bytes": 0, "host_argument_size_in_bytes": 0, "host_output_size_in_bytes": 0, "host_alias_size_in_bytes": 0, "host_temp_size_in_bytes": 0}}}
