{"case": "hlo", "tag": "smolyak_single_integral", "dialect": "stablehlo_or_hlo", "hlo": "module @jit__single_integral attributes {mhlo.num_partitions = 1 : i32, mhlo.num_replicas = 1 : i32} {\n  func.func public @main(%arg0: tensor<3xf32>, %arg1: tensor<18xf32>, %arg2: tensor<18xf32>, %arg3: tensor<4xi64>, %arg4: tensor<4xi64>, %arg5: tensor<4x3xi32>) -> (tensor<1xf32> {jax.result_info = \"result\"}) {\n    %cst = stablehlo.constant dense<0.000000e+00> : tensor<f32>\n    %0 = stablehlo.broadcast_in_dim %cst, dims = [] : (tensor<f32>) -> tensor<3xf32>\n    %1 = stablehlo.broadcast_in_dim %cst, dims = [] : (tensor<f32>) -> tensor<1xf32>\n    %c = stablehlo.constant dense<0> : tensor<i64>\n    %c_0 = stablehlo.constant dense<0> : tensor<i64>\n    %2:10 = stablehlo.while(%iterArg = %arg5, %iterArg_1 = %arg3, %iterArg_2 = %arg4, %iterArg_3 = %arg1, %iterArg_4 = %arg2, %iterArg_5 = %0, %iterArg_6 = %arg0, %iterArg_7 = %c_0, %iterArg_8 = %c, %iterArg_9 = %1) : tensor<4x3xi32>, tensor<4xi64>, tensor<4xi64>, tensor<18xf32>, tensor<18xf32>, tensor<3xf32>, tensor<3xf32>, tensor<i64>, tensor<i64>, tensor<1xf32>\n     cond {\n      %c_10 = stablehlo.constant dense<4> : tensor<i64>\n      %3 = stablehlo.compare  LT, %iterArg_7, %c_10,  SIGNED : (tensor<i64>, tensor<i64>) -> tensor<i1>\n      stablehlo.return %3 : tensor<i1>\n    } do {\n      %3:2 = func.call @None(%iterArg, %iterArg_1, %iterArg_2, %iterArg_3, %iterArg_4, %iterArg_5, %iterArg_6, %iterArg_8, %iterArg_9) : (tensor<4x3xi32>, tensor<4xi64>, tensor<4xi64>, tensor<18xf32>, tensor<18xf32>, tensor<3xf32>, tensor<3xf32>, tensor<i64>, tensor<1xf32>) -> (tensor<i64>, tensor<1xf32>)\n      %c_10 = stablehlo.constant dense<1> : tensor<i64>\n      %4 = stablehlo.add %iterArg_7, %c_10 : tensor<i64>\n      stablehlo.return %iterArg, %iterArg_1, %iterArg_2, %iterArg_3, %iterArg_4, %iterArg_5, %iterArg_6, %4, %3#0, %3#1 : tensor<4x3xi32>, tensor<4xi64>, tensor<4xi64>, tensor<18xf32>, tensor<18xf32>, tensor<3xf32>, tensor<3xf32>, tensor<i64>, tensor<i64>, tensor<1xf32>\n    }\n    return %2#9 : tensor<1xf32>\n  }\n  func.func private @None(%arg0: tensor<4x3xi32>, %arg1: tensor<4xi64>, %arg2: tensor<4xi64>, %arg3: tensor<18xf32>, %arg4: tensor<18xf32>, %arg5: tensor<3xf32>, %arg6: tensor<3xf32>, %arg7: tensor<i64>, %arg8: tensor<1xf32>) -> (tensor<i64>, tensor<1xf32>) {\n    %c = stablehlo.constant dense<1> : tensor<i64>\n    %0 = stablehlo.add %arg7, %c : tensor<i64>\n    %c_0 = stablehlo.constant dense<0> : tensor<i64>\n    %1 = stablehlo.compare  LT, %arg7, %c_0,  SIGNED : (tensor<i64>, tensor<i64>) -> tensor<i1>\n    %2 = stablehlo.convert %arg7 : tensor<i64>\n    %c_1 = stablehlo.constant dense<4> : tensor<i64>\n    %3 = stablehlo.add %2, %c_1 : tensor<i64>\n    %4 = stablehlo.select %1, %3, %arg7 : tensor<i1>, tensor<i64>\n    %5 = stablehlo.dynamic_slice %arg0, %4, %c_0, sizes = [1, 3] : (tensor<4x3xi32>, tensor<i64>, tensor<i64>) -> tensor<1x3xi32>\n    %6 = stablehlo.reshape %5 : (tensor<1x3xi32>) -> tensor<3xi32>\n    %7 = stablehlo.slice %6 [0:1] : (tensor<3xi32>) -> tensor<1xi32>\n    %8 = stablehlo.reshape %7 : (tensor<1xi32>) -> tensor<i32>\n    %c_2 = stablehlo.constant dense<1> : tensor<i32>\n    %9 = stablehlo.subtract %8, %c_2 : tensor<i32>\n    %10 = call @_take(%arg1, %9) : (tensor<4xi64>, tensor<i32>) -> tensor<i64>\n    %11 = call @_take(%arg2, %9) : (tensor<4xi64>, tensor<i32>) -> tensor<i64>\n    %cst = stablehlo.constant dense<1.000000e+00> : tensor<f32>\n    %12:12 = stablehlo.while(%iterArg = %10, %iterArg_3 = %arg3, %iterArg_4 = %arg4, %iterArg_5 = %arg5, %iterArg_6 = %cst, %iterArg_7 = %6, %iterArg_8 = %arg1, %iterArg_9 = %arg2, %iterArg_10 = %arg6, %iterArg_11 = %c_0, %iterArg_12 = %11, %iterArg_13 = %arg8) : tensor<i64>, tensor<18xf32>, tensor<18xf32>, tensor<3xf32>, tensor<f32>, tensor<3xi32>, tensor<4xi64>, tensor<4xi64>, tensor<3xf32>, tensor<i64>, tensor<i64>, tensor<1xf32>\n     cond {\n      %13 = stablehlo.compare  LT, %iterArg_11, %iterArg_12,  SIGNED : (tensor<i64>, tensor<i64>) -> tensor<i1>\n      stablehlo.return %13 : tensor<i1>\n    } do {\n      %c_14 = stablehlo.constant dense<1> : tensor<i64>\n      %13 = stablehlo.add %iterArg_11, %c_14 : tensor<i64>\n      %14 = stablehlo.convert %iterArg_11 : tensor<i64>\n      %15 = stablehlo.add %iterArg, %14 : tensor<i64>\n      %16 = func.call @_take_0(%iterArg_3, %15) : (tensor<18xf32>, tensor<i64>) -> tensor<f32>\n      %17 = func.call @_take_0(%iterArg_4, %15) : (tensor<18xf32>, tensor<i64>) -> tensor<f32>\n      %c_15 = stablehlo.constant dense<0> : tensor<i32>\n      %18 = stablehlo.broadcast_in_dim %c_15, dims = [] : (tensor<i32>) -> tensor<1xi32>\n      %19 = \"stablehlo.scatter\"(%iterArg_5, %18, %16) <{indices_are_sorted = true, scatter_dimension_numbers = #stablehlo.scatter<inserted_window_dims = [0], scatter_dims_to_operand_dims = [0]>, unique_indices = true}> ({\n      ^bb0(%arg9: tensor<f32>, %arg10: tensor<f32>):\n        stablehlo.return %arg10 : tensor<f32>\n      }) : (tensor<3xf32>, tensor<1xi32>, tensor<f32>) -> tensor<3xf32>\n      %20 = stablehlo.multiply %iterArg_6, %17 : tensor<f32>\n      %21 = stablehlo.slice %iterArg_7 [1:2] : (tensor<3xi32>) -> tensor<1xi32>\n      %22 = stablehlo.reshape %21 : (tensor<1xi32>) -> tensor<i32>\n      %c_16 = stablehlo.constant dense<1> : tensor<i32>\n      %23 = stablehlo.subtract %22, %c_16 : tensor<i32>\n      %24 = func.call @_take_1(%iterArg_8, %23) : (tensor<4xi64>, tensor<i32>) -> tensor<i64>\n      %25 = func.call @_take_1(%iterArg_9, %23) : (tensor<4xi64>, tensor<i32>) -> tensor<i64>\n      %c_17 = stablehlo.constant dense<0> : tensor<i64>\n      %26:12 = stablehlo.while(%iterArg_18 = %24, %iterArg_19 = %iterArg_3, %iterArg_20 = %iterArg_4, %iterArg_21 = %19, %iterArg_22 = %20, %iterArg_23 = %iterArg_7, %iterArg_24 = %iterArg_8, %iterArg_25 = %iterArg_9, %iterArg_26 = %iterArg_10, %iterArg_27 = %c_17, %iterArg_28 = %25, %iterArg_29 = %iterArg_13) : tensor<i64>, tensor<18xf32>, tensor<18xf32>, tensor<3xf32>, tensor<f32>, tensor<3xi32>, tensor<4xi64>, tensor<4xi64>, tensor<3xf32>, tensor<i64>, tensor<i64>, tensor<1xf32>\n       cond {\n        %27 = stablehlo.compare  LT, %iterArg_27, %iterArg_28,  SIGNED : (tensor<i64>, tensor<i64>) -> tensor<i1>\n        stablehlo.return %27 : tensor<i1>\n      } do {\n        %c_30 = stablehlo.constant dense<1> : tensor<i64>\n        %27 = stablehlo.add %iterArg_27, %c_30 : tensor<i64>\n        %28 = stablehlo.convert %iterArg_27 : tensor<i64>\n        %29 = stablehlo.add %iterArg_18, %28 : tensor<i64>\n        %30 = func.call @_take_0(%iterArg_19, %29) : (tensor<18xf32>, tensor<i64>) -> tensor<f32>\n        %31 = func.call @_take_0(%iterArg_20, %29) : (tensor<18xf32>, tensor<i64>) -> tensor<f32>\n        %c_31 = stablehlo.constant dense<1> : tensor<i32>\n        %32 = stablehlo.broadcast_in_dim %c_31, dims = [] : (tensor<i32>) -> tensor<1xi32>\n        %33 = \"stablehlo.scatter\"(%iterArg_21, %32, %30) <{indices_are_sorted = true, scatter_dimension_numbers = #stablehlo.scatter<inserted_window_dims = [0], scatter_dims_to_operand_dims = [0]>, unique_indices = true}> ({\n        ^bb0(%arg9: tensor<f32>, %arg10: tensor<f32>):\n          stablehlo.return %arg10 : tensor<f32>\n        }) : (tensor<3xf32>, tensor<1xi32>, tensor<f32>) -> tensor<3xf32>\n        %34 = stablehlo.multiply %iterArg_22, %31 : tensor<f32>\n        %35 = stablehlo.slice %iterArg_23 [2:3] : (tensor<3xi32>) -> tensor<1xi32>\n        %36 = stablehlo.reshape %35 : (tensor<1xi32>) -> tensor<i32>\n        %37 = stablehlo.subtract %36, %c_31 : tensor<i32>\n        %38 = func.call @_take_1(%iterArg_24, %37) : (tensor<4xi64>, tensor<i32>) -> tensor<i64>\n        %39 = func.call @_take_1(%iterArg_25, %37) : (tensor<4xi64>, tensor<i32>) -> tensor<i64>\n        %40 = stablehlo.iota dim = 0 : tensor<16384xi64>\n        %c_32 = stablehlo.constant dense<16384> : tensor<i64>\n        %41 = stablehlo.add %39, %c_32 : tensor<i64>\n        %c_33 = stablehlo.constant dense<1> : tensor<i64>\n        %42 = stablehlo.subtract %41, %c_33 : tensor<i64>\n        %c_34 = stablehlo.constant dense<16384> : tensor<i64>\n        %43 = func.call @floor_divide(%42, %c_34) : (tensor<i64>, tensor<i64>) -> tensor<i64>\n        %c_35 = stablehlo.constant dense<0> : tensor<i64>\n        %44:11 = stablehlo.while(%iterArg_36 = %40, %iterArg_37 = %39, %iterArg_38 = %38, %iterArg_39 = %iterArg_19, %iterArg_40 = %iterArg_20, %iterArg_41 = %33, %iterArg_42 = %iterArg_26, %iterArg_43 = %34, %iterArg_44 = %c_35, %iterArg_45 = %43, %iterArg_46 = %iterArg_29) : tensor<16384xi64>, tensor<i64>, tensor<i64>, tensor<18xf32>, tensor<18xf32>, tensor<3xf32>, tensor<3xf32>, tensor<f32>, tensor<i64>, tensor<i64>, tensor<1xf32>\n         cond {\n          %45 = stablehlo.compare  LT, %iterArg_44, %iterArg_45,  SIGNED : (tensor<i64>, tensor<i64>) -> tensor<i1>\n          stablehlo.return %45 : tensor<i1>\n        } do {\n          %c_47 = stablehlo.constant dense<1> : tensor<i64>\n          %45 = stablehlo.add %iterArg_44, %c_47 : tensor<i64>\n          %46 = stablehlo.convert %iterArg_44 : tensor<i64>\n          %c_48 = stablehlo.constant dense<16384> : tensor<i64>\n          %47 = stablehlo.multiply %46, %c_48 : tensor<i64>\n          %48 = stablehlo.broadcast_in_dim %47, dims = [] : (tensor<i64>) -> tensor<16384xi64>\n          %49 = stablehlo.add %48, %iterArg_36 : tensor<16384xi64>\n          %50 = stablehlo.broadcast_in_dim %iterArg_37, dims = [] : (tensor<i64>) -> tensor<16384xi64>\n          %51 = stablehlo.compare  LT, %49, %50,  SIGNED : (tensor<16384xi64>, tensor<16384xi64>) -> tensor<16384xi1>\n          %c_49 = stablehlo.constant dense<0> : tensor<i64>\n          %52 = func.call @_where_2(%51, %49, %c_49) : (tensor<16384xi1>, tensor<16384xi64>, tensor<i64>) -> tensor<16384xi64>\n          %53 = stablehlo.broadcast_in_dim %iterArg_38, dims = [] : (tensor<i64>) -> tensor<16384xi64>\n          %54 = stablehlo.add %53, %52 : tensor<16384xi64>\n          %55 = func.call @_take_3(%iterArg_39, %54) : (tensor<18xf32>, tensor<16384xi64>) -> tensor<16384xf32>\n          %56 = func.call @_take_3(%iterArg_40, %54) : (tensor<18xf32>, tensor<16384xi64>) -> tensor<16384xf32>\n          %57 = stablehlo.broadcast_in_dim %iterArg_41, dims = [0] : (tensor<3xf32>) -> tensor<3x1xf32>\n          %58 = stablehlo.broadcast_in_dim %57, dims = [0, 1] : (tensor<3x1xf32>) -> tensor<3x16384xf32>\n          %c_50 = stablehlo.constant dense<2> : tensor<i32>\n          %59 = stablehlo.broadcast_in_dim %c_50, dims = [] : (tensor<i32>) -> tensor<1xi32>\n          %60 = \"stablehlo.scatter\"(%58, %59, %55) <{indices_are_sorted = true, scatter_dimension_numbers = #stablehlo.scatter<update_window_dims = [0], inserted_window_dims = [0], scatter_dims_to_operand_dims = [0]>, unique_indices = true}> ({\n          ^bb0(%arg9: tensor<f32>, %arg10: tensor<f32>):\n            stablehlo.return %arg10 : tensor<f32>\n          }) : (tensor<3x16384xf32>, tensor<1xi32>, tensor<16384xf32>) -> tensor<3x16384xf32>\n          %61 = stablehlo.dot_general %iterArg_42, %60, contracting_dims = [0] x [0], precision = [DEFAULT, DEFAULT] : (tensor<3xf32>, tensor<3x16384xf32>) -> tensor<16384xf32>\n          %62 = stablehlo.exponential %61 : tensor<16384xf32>\n          %63 = stablehlo.broadcast_in_dim %62, dims = [0] : (tensor<16384xf32>) -> tensor<16384x1xf32>\n          %64 = stablehlo.transpose %63, dims = [1, 0] : (tensor<16384x1xf32>) -> tensor<1x16384xf32>\n          %65 = stablehlo.broadcast_in_dim %iterArg_43, dims = [] : (tensor<f32>) -> tensor<16384xf32>\n          %66 = stablehlo.multiply %65, %56 : tensor<16384xf32>\n          %67 = func.call @_where_4(%51, %66, %c_49) : (tensor<16384xi1>, tensor<16384xf32>, tensor<i64>) -> tensor<16384xf32>\n          %68 = stablehlo.dot_general %64, %67, contracting_dims = [1] x [0], precision = [DEFAULT, DEFAULT] : (tensor<1x16384xf32>, tensor<16384xf32>) -> tensor<1xf32>\n          %69 = stablehlo.add %iterArg_46, %68 : tensor<1xf32>\n          stablehlo.return %iterArg_36, %iterArg_37, %iterArg_38, %iterArg_39, %iterArg_40, %iterArg_41, %iterArg_42, %iterArg_43, %45, %iterArg_45, %69 : tensor<16384xi64>, tensor<i64>, tensor<i64>, tensor<18xf32>, tensor<18xf32>, tensor<3xf32>, tensor<3xf32>, tensor<f32>, tensor<i64>, tensor<i64>, tensor<1xf32>\n        }\n        stablehlo.return %iterArg_18, %iterArg_19, %iterArg_20, %iterArg_21, %iterArg_22, %iterArg_23, %iterArg_24, %iterArg_25, %iterArg_26, %27, %iterArg_28, %44#10 : tensor<i64>, tensor<18xf32>, tensor<18xf32>, tensor<3xf32>, tensor<f32>, tensor<3xi32>, tensor<4xi64>, tensor<4xi64>, tensor<3xf32>, tensor<i64>, tensor<i64>, tensor<1xf32>\n      }\n      stablehlo.return %iterArg, %iterArg_3, %iterArg_4, %iterArg_5, %iterArg_6, %iterArg_7, %iterArg_8, %iterArg_9, %iterArg_10, %13, %iterArg_12, %26#11 : tensor<i64>, tensor<18xf32>, tensor<18xf32>, tensor<3xf32>, tensor<f32>, tensor<3xi32>, tensor<4xi64>, tensor<4xi64>, tensor<3xf32>, tensor<i64>, tensor<i64>, tensor<1xf32>\n    }\n    return %0, %12#11 : tensor<i64>, tensor<1xf32>\n  }\n  func.func private @_take(%arg0: tensor<4xi64>, %arg1: tensor<i32>) -> tensor<i64> {\n    %0 = stablehlo.broadcast_in_dim %arg1, dims = [] : (tensor<i32>) -> tensor<1xi32>\n    %1 = \"stablehlo.gather\"(%arg0, %0) <{dimension_numbers = #stablehlo.gather<collapsed_slice_dims = [0], start_index_map = [0]>, indices_are_sorted = false, slice_sizes = array<i64: 1>}> : (tensor<4xi64>, tensor<1xi32>) -> tensor<i64>\n    return %1 : tensor<i64>\n  }\n  func.func private @_take_0(%arg0: tensor<18xf32>, %arg1: tensor<i64>) -> tensor<f32> {\n    %0 = stablehlo.broadcast_in_dim %arg1, dims = [] : (tensor<i64>) -> tensor<1xi64>\n    %1 = \"stablehlo.gather\"(%arg0, %0) <{dimension_numbers = #stablehlo.gather<collapsed_slice_dims = [0], start_index_map = [0]>, indices_are_sorted = false, slice_sizes = array<i64: 1>}> : (tensor<18xf32>, tensor<1xi64>) -> tensor<f32>\n    return %1 : tensor<f32>\n  }\n  func.func private @_take_1(%arg0: tensor<4xi64>, %arg1: tensor<i32>) -> tensor<i64> {\n    %0 = stablehlo.broadcast_in_dim %arg1, dims = [] : (tensor<i32>) -> tensor<1xi32>\n    %1 = \"stablehlo.gather\"(%arg0, %0) <{dimension_numbers = #stablehlo.gather<collapsed_slice_dims = [0], start_index_map = [0]>, indices_are_sorted = false, slice_sizes = array<i64: 1>}> : (tensor<4xi64>, tensor<1xi32>) -> tensor<i64>\n    return %1 : tensor<i64>\n  }\n  func.func private @floor_divide(%arg0: tensor<i64>, %arg1: tensor<i64>) -> tensor<i64> {\n    %0 = stablehlo.convert %arg1 : tensor<i64>\n    %1 = stablehlo.divide %arg0, %0 : tensor<i64>\n    %2 = stablehlo.sign %arg0 : tensor<i64>\n    %3 = stablehlo.sign %0 : tensor<i64>\n    %4 = stablehlo.compare  NE, %2, %3,  SIGNED : (tensor<i64>, tensor<i64>) -> tensor<i1>\n    %5 = stablehlo.remainder %arg0, %0 : tensor<i64>\n    %c = stablehlo.constant dense<0> : tensor<i64>\n    %6 = stablehlo.compare  NE, %5, %c,  SIGNED : (tensor<i64>, tensor<i64>) -> tensor<i1>\n    %7 = stablehlo.and %4, %6 : tensor<i1>\n    %c_0 = stablehlo.constant dense<1> : tensor<i64>\n    %8 = stablehlo.subtract %1, %c_0 : tensor<i64>\n    %9 = call @_where(%7, %8, %1) : (tensor<i1>, tensor<i64>, tensor<i64>) -> tensor<i64>\n    return %9 : tensor<i64>\n  }\n  func.func private @_where(%arg0: tensor<i1>, %arg1: tensor<i64>, %arg2: tensor<i64>) -> tensor<i64> {\n    %0 = stablehlo.select %arg0, %arg1, %arg2 : tensor<i1>, tensor<i64>\n    return %0 : tensor<i64>\n  }\n  func.func private @_where_2(%arg0: tensor<16384xi1>, %arg1: tensor<16384xi64>, %arg2: tensor<i64>) -> tensor<16384xi64> {\n    %0 = stablehlo.convert %arg2 : tensor<i64>\n    %1 = stablehlo.broadcast_in_dim %0, dims = [] : (tensor<i64>) -> tensor<16384xi64>\n    %2 = stablehlo.select %arg0, %arg1, %1 : tensor<16384xi1>, tensor<16384xi64>\n    return %2 : tensor<16384xi64>\n  }\n  func.func private @_take_3(%arg0: tensor<18xf32>, %arg1: tensor<16384xi64>) -> tensor<16384xf32> {\n    %0 = stablehlo.broadcast_in_dim %arg1, dims = [0] : (tensor<16384xi64>) -> tensor<16384x1xi64>\n    %1 = \"stablehlo.gather\"(%arg0, %0) <{dimension_numbers = #stablehlo.gather<collapsed_slice_dims = [0], start_index_map = [0], index_vector_dim = 1>, indices_are_sorted = false, slice_sizes = array<i64: 1>}> : (tensor<18xf32>, tensor<16384x1xi64>) -> tensor<16384xf32>\n    return %1 : tensor<16384xf32>\n  }\n  func.func private @_where_4(%arg0: tensor<16384xi1>, %arg1: tensor<16384xf32>, %arg2: tensor<i64>) -> tensor<16384xf32> {\n    %0 = stablehlo.convert %arg2 : (tensor<i64>) -> tensor<f32>\n    %1 = stablehlo.broadcast_in_dim %0, dims = [] : (tensor<f32>) -> tensor<16384xf32>\n    %2 = stablehlo.select %arg0, %arg1, %1 : tensor<16384xi1>, tensor<16384xf32>\n    return %2 : tensor<16384xf32>\n  }\n}\n"}
{"case": "hlo", "tag": "smolyak_repeated_integral", "dialect": "stablehlo_or_hlo", "hlo": "module @jit__repeated_integral attributes {mhlo.num_partitions = 1 : i32, mhlo.num_replicas = 1 : i32} {\n  func.func public @main(%arg0: tensor<3xf32>, %arg1: tensor<18xf32>, %arg2: tensor<18xf32>, %arg3: tensor<4xi64>, %arg4: tensor<4xi64>, %arg5: tensor<4x3xi32>, %arg6: tensor<i64>) -> (tensor<1xf32> {jax.result_info = \"result\"}) {\n    %cst = stablehlo.constant dense<0.000000e+00> : tensor<f32>\n    %0 = stablehlo.broadcast_in_dim %cst, dims = [] : (tensor<f32>) -> tensor<1xf32>\n    %c = stablehlo.constant dense<0> : tensor<i64>\n    %1:9 = stablehlo.while(%iterArg = %arg0, %iterArg_0 = %arg5, %iterArg_1 = %arg3, %iterArg_2 = %arg4, %iterArg_3 = %arg1, %iterArg_4 = %arg2, %iterArg_5 = %c, %iterArg_6 = %arg6, %iterArg_7 = %0) : tensor<3xf32>, tensor<4x3xi32>, tensor<4xi64>, tensor<4xi64>, tensor<18xf32>, tensor<18xf32>, tensor<i64>, tensor<i64>, tensor<1xf32>\n     cond {\n      %5 = stablehlo.compare  LT, %iterArg_5, %iterArg_6,  SIGNED : (tensor<i64>, tensor<i64>) -> tensor<i1>\n      stablehlo.return %5 : tensor<i1>\n    } do {\n      %c_8 = stablehlo.constant dense<1> : tensor<i64>\n      %5 = stablehlo.add %iterArg_5, %c_8 : tensor<i64>\n      %cst_9 = stablehlo.constant dense<0.000000e+00> : tensor<f32>\n      %6 = stablehlo.broadcast_in_dim %cst_9, dims = [] : (tensor<f32>) -> tensor<3xf32>\n      %7 = stablehlo.dot_general %iterArg, %6, contracting_dims = [0] x [0], precision = [DEFAULT, DEFAULT] : (tensor<3xf32>, tensor<3xf32>) -> tensor<f32>\n      %8 = stablehlo.exponential %7 : tensor<f32>\n      %9 = stablehlo.broadcast_in_dim %8, dims = [] : (tensor<f32>) -> tensor<1xf32>\n      %10 = stablehlo.broadcast_in_dim %cst_9, dims = [] : (tensor<f32>) -> tensor<1xf32>\n      %c_10 = stablehlo.constant dense<0> : tensor<i64>\n      %c_11 = stablehlo.constant dense<0> : tensor<i64>\n      %11:10 = stablehlo.while(%iterArg_12 = %iterArg_0, %iterArg_13 = %iterArg_1, %iterArg_14 = %iterArg_2, %iterArg_15 = %iterArg_3, %iterArg_16 = %iterArg_4, %iterArg_17 = %6, %iterArg_18 = %iterArg, %iterArg_19 = %c_11, %iterArg_20 = %c_10, %iterArg_21 = %10) : tensor<4x3xi32>, tensor<4xi64>, tensor<4xi64>, tensor<18xf32>, tensor<18xf32>, tensor<3xf32>, tensor<3xf32>, tensor<i64>, tensor<i64>, tensor<1xf32>\n       cond {\n        %c_22 = stablehlo.constant dense<4> : tensor<i64>\n        %13 = stablehlo.compare  LT, %iterArg_19, %c_22,  SIGNED : (tensor<i64>, tensor<i64>) -> tensor<i1>\n        stablehlo.return %13 : tensor<i1>\n      } do {\n        %13:2 = func.call @None(%iterArg_12, %iterArg_13, %iterArg_14, %iterArg_15, %iterArg_16, %iterArg_17, %iterArg_18, %iterArg_20, %iterArg_21) : (tensor<4x3xi32>, tensor<4xi64>, tensor<4xi64>, tensor<18xf32>, tensor<18xf32>, tensor<3xf32>, tensor<3xf32>, tensor<i64>, tensor<1xf32>) -> (tensor<i64>, tensor<1xf32>)\n        %c_22 = stablehlo.constant dense<1> : tensor<i64>\n        %14 = stablehlo.add %iterArg_19, %c_22 : tensor<i64>\n        stablehlo.return %iterArg_12, %iterArg_13, %iterArg_14, %iterArg_15, %iterArg_16, %iterArg_17, %iterArg_18, %14, %13#0, %13#1 : tensor<4x3xi32>, tensor<4xi64>, tensor<4xi64>, tensor<18xf32>, tensor<18xf32>, tensor<3xf32>, tensor<3xf32>, tensor<i64>, tensor<i64>, tensor<1xf32>\n      }\n      %12 = stablehlo.add %iterArg_7, %11#9 : tensor<1xf32>\n      stablehlo.return %iterArg, %iterArg_0, %iterArg_1, %iterArg_2, %iterArg_3, %iterArg_4, %5, %iterArg_6, %12 : tensor<3xf32>, tensor<4x3xi32>, tensor<4xi64>, tensor<4xi64>, tensor<18xf32>, tensor<18xf32>, tensor<i64>, tensor<i64>, tensor<1xf32>\n    }\n    %2 = stablehlo.convert %arg6 : (tensor<i64>) -> tensor<f32>\n    %3 = stablehlo.broadcast_in_dim %2, dims = [] : (tensor<f32>) -> tensor<1xf32>\n    %4 = stablehlo.divide %1#8, %3 : tensor<1xf32>\n    return %4 : tensor<1xf32>\n  }\n  func.func private @None(%arg0: tensor<4x3xi32>, %arg1: tensor<4xi64>, %arg2: tensor<4xi64>, %arg3: tensor<18xf32>, %arg4: tensor<18xf32>, %arg5: tensor<3xf32>, %arg6: tensor<3xf32>, %arg7: tensor<i64>, %arg8: tensor<1xf32>) -> (tensor<i64>, tensor<1xf32>) {\n    %c = stablehlo.constant dense<1> : tensor<i64>\n    %0 = stablehlo.add %arg7, %c : tensor<i64>\n    %c_0 = stablehlo.constant dense<0> : tensor<i64>\n    %1 = stablehlo.compare  LT, %arg7, %c_0,  SIGNED : (tensor<i64>, tensor<i64>) -> tensor<i1>\n    %2 = stablehlo.convert %arg7 : tensor<i64>\n    %c_1 = stablehlo.constant dense<4> : tensor<i64>\n    %3 = stablehlo.add %2, %c_1 : tensor<i64>\n    %4 = stablehlo.select %1, %3, %arg7 : tensor<i1>, tensor<i64>\n    %5 = stablehlo.dynamic_slice %arg0, %4, %c_0, sizes = [1, 3] : (tensor<4x3xi32>, tensor<i64>, tensor<i64>) -> tensor<1x3xi32>\n    %6 = stablehlo.reshape %5 : (tensor<1x3xi32>) -> tensor<3xi32>\n    %7 = stablehlo.slice %6 [0:1] : (tensor<3xi32>) -> tensor<1xi32>\n    %8 = stablehlo.reshape %7 : (tensor<1xi32>) -> tensor<i32>\n    %c_2 = stablehlo.constant dense<1> : tensor<i32>\n    %9 = stablehlo.subtract %8, %c_2 : tensor<i32>\n    %10 = call @_take(%arg1, %9) : (tensor<4xi64>, tensor<i32>) -> tensor<i64>\n    %11 = call @_take(%arg2, %9) : (tensor<4xi64>, tensor<i32>) -> tensor<i64>\n    %cst = stablehlo.constant dense<1.000000e+00> : tensor<f32>\n    %12:12 = stablehlo.while(%iterArg = %10, %iterArg_3 = %arg3, %iterArg_4 = %arg4, %iterArg_5 = %arg5, %iterArg_6 = %cst, %iterArg_7 = %6, %iterArg_8 = %arg1, %iterArg_9 = %arg2, %iterArg_10 = %arg6, %iterArg_11 = %c_0, %iterArg_12 = %11, %iterArg_13 = %arg8) : tensor<i64>, tensor<18xf32>, tensor<18xf32>, tensor<3xf32>, tensor<f32>, tensor<3xi32>, tensor<4xi64>, tensor<4xi64>, tensor<3xf32>, tensor<i64>, tensor<i64>, tensor<1xf32>\n     cond {\n      %13 = stablehlo.compare  LT, %iterArg_11, %iterArg_12,  SIGNED : (tensor<i64>, tensor<i64>) -> tensor<i1>\n      stablehlo.return %13 : tensor<i1>\n    } do {\n      %c_14 = stablehlo.constant dense<1> : tensor<i64>\n      %13 = stablehlo.add %iterArg_11, %c_14 : tensor<i64>\n      %14 = stablehlo.convert %iterArg_11 : tensor<i64>\n      %15 = stablehlo.add %iterArg, %14 : tensor<i64>\n      %16 = func.call @_take_0(%iterArg_3, %15) : (tensor<18xf32>, tensor<i64>) -> tensor<f32>\n      %17 = func.call @_take_0(%iterArg_4, %15) : (tensor<18xf32>, tensor<i64>) -> tensor<f32>\n      %c_15 = stablehlo.constant dense<0> : tensor<i32>\n      %18 = stablehlo.broadcast_in_dim %c_15, dims = [] : (tensor<i32>) -> tensor<1xi32>\n      %19 = \"stablehlo.scatter\"(%iterArg_5, %18, %16) <{indices_are_sorted = true, scatter_dimension_numbers = #stablehlo.scatter<inserted_window_dims = [0], scatter_dims_to_operand_dims = [0]>, unique_indices = true}> ({\n      ^bb0(%arg9: tensor<f32>, %arg10: tensor<f32>):\n        stablehlo.return %arg10 : tensor<f32>\n      }) : (tensor<3xf32>, tensor<1xi32>, tensor<f32>) -> tensor<3xf32>\n      %20 = stablehlo.multiply %iterArg_6, %17 : tensor<f32>\n      %21 = stablehlo.slice %iterArg_7 [1:2] : (tensor<3xi32>) -> tensor<1xi32>\n      %22 = stablehlo.reshape %21 : (tensor<1xi32>) -> tensor<i32>\n      %c_16 = stablehlo.constant dense<1> : tensor<i32>\n      %23 = stablehlo.subtract %22, %c_16 : tensor<i32>\n      %24 = func.call @_take(%iterArg_8, %23) : (tensor<4xi64>, tensor<i32>) -> tensor<i64>\n      %25 = func.call @_take(%iterArg_9, %23) : (tensor<4xi64>, tensor<i32>) -> tensor<i64>\n      %c_17 = stablehlo.constant dense<0> : tensor<i64>\n      %26:12 = stablehlo.while(%iterArg_18 = %24, %iterArg_19 = %iterArg_3, %iterArg_20 = %iterArg_4, %iterArg_21 = %19, %iterArg_22 = %20, %iterArg_23 = %iterArg_7, %iterArg_24 = %iterArg_8, %iterArg_25 = %iterArg_9, %iterArg_26 = %iterArg_10, %iterArg_27 = %c_17, %iterArg_28 = %25, %iterArg_29 = %iterArg_13) : tensor<i64>, tensor<18xf32>, tensor<18xf32>, tensor<3xf32>, tensor<f32>, tensor<3xi32>, tensor<4xi64>, tensor<4xi64>, tensor<3xf32>, tensor<i64>, tensor<i64>, tensor<1xf32>\n       cond {\n        %27 = stablehlo.compare  LT, %iterArg_27, %iterArg_28,  SIGNED : (tensor<i64>, tensor<i64>) -> tensor<i1>\n        stablehlo.return %27 : tensor<i1>\n      } do {\n        %c_30 = stablehlo.constant dense<1> : tensor<i64>\n        %27 = stablehlo.add %iterArg_27, %c_30 : tensor<i64>\n        %28 = stablehlo.convert %iterArg_27 : tensor<i64>\n        %29 = stablehlo.add %iterArg_18, %28 : tensor<i64>\n        %30 = func.call @_take_0(%iterArg_19, %29) : (tensor<18xf32>, tensor<i64>) -> tensor<f32>\n        %31 = func.call @_take_0(%iterArg_20, %29) : (tensor<18xf32>, tensor<i64>) -> tensor<f32>\n        %c_31 = stablehlo.constant dense<1> : tensor<i32>\n        %32 = stablehlo.broadcast_in_dim %c_31, dims = [] : (tensor<i32>) -> tensor<1xi32>\n        %33 = \"stablehlo.scatter\"(%iterArg_21, %32, %30) <{indices_are_sorted = true, scatter_dimension_numbers = #stablehlo.scatter<inserted_window_dims = [0], scatter_dims_to_operand_dims = [0]>, unique_indices = true}> ({\n        ^bb0(%arg9: tensor<f32>, %arg10: tensor<f32>):\n          stablehlo.return %arg10 : tensor<f32>\n        }) : (tensor<3xf32>, tensor<1xi32>, tensor<f32>) -> tensor<3xf32>\n        %34 = stablehlo.multiply %iterArg_22, %31 : tensor<f32>\n        %35 = stablehlo.slice %iterArg_23 [2:3] : (tensor<3xi32>) -> tensor<1xi32>\n        %36 = stablehlo.reshape %35 : (tensor<1xi32>) -> tensor<i32>\n        %37 = stablehlo.subtract %36, %c_31 : tensor<i32>\n        %38 = func.call @_take(%iterArg_24, %37) : (tensor<4xi64>, tensor<i32>) -> tensor<i64>\n        %39 = func.call @_take(%iterArg_25, %37) : (tensor<4xi64>, tensor<i32>) -> tensor<i64>\n        %40 = stablehlo.iota dim = 0 : tensor<16384xi64>\n        %c_32 = stablehlo.constant dense<16384> : tensor<i64>\n        %41 = stablehlo.add %39, %c_32 : tensor<i64>\n        %c_33 = stablehlo.constant dense<1> : tensor<i64>\n        %42 = stablehlo.subtract %41, %c_33 : tensor<i64>\n        %c_34 = stablehlo.constant dense<16384> : tensor<i64>\n        %43 = func.call @floor_divide(%42, %c_34) : (tensor<i64>, tensor<i64>) -> tensor<i64>\n        %c_35 = stablehlo.constant dense<0> : tensor<i64>\n        %44:11 = stablehlo.while(%iterArg_36 = %40, %iterArg_37 = %39, %iterArg_38 = %38, %iterArg_39 = %iterArg_19, %iterArg_40 = %iterArg_20, %iterArg_41 = %33, %iterArg_42 = %iterArg_26, %iterArg_43 = %34, %iterArg_44 = %c_35, %iterArg_45 = %43, %iterArg_46 = %iterArg_29) : tensor<16384xi64>, tensor<i64>, tensor<i64>, tensor<18xf32>, tensor<18xf32>, tensor<3xf32>, tensor<3xf32>, tensor<f32>, tensor<i64>, tensor<i64>, tensor<1xf32>\n         cond {\n          %45 = stablehlo.compare  LT, %iterArg_44, %iterArg_45,  SIGNED : (tensor<i64>, tensor<i64>) -> tensor<i1>\n          stablehlo.return %45 : tensor<i1>\n        } do {\n          %c_47 = stablehlo.constant dense<1> : tensor<i64>\n          %45 = stablehlo.add %iterArg_44, %c_47 : tensor<i64>\n          %46 = stablehlo.convert %iterArg_44 : tensor<i64>\n          %c_48 = stablehlo.constant dense<16384> : tensor<i64>\n          %47 = stablehlo.multiply %46, %c_48 : tensor<i64>\n          %48 = stablehlo.broadcast_in_dim %47, dims = [] : (tensor<i64>) -> tensor<16384xi64>\n          %49 = stablehlo.add %48, %iterArg_36 : tensor<16384xi64>\n          %50 = stablehlo.broadcast_in_dim %iterArg_37, dims = [] : (tensor<i64>) -> tensor<16384xi64>\n          %51 = stablehlo.compare  LT, %49, %50,  SIGNED : (tensor<16384xi64>, tensor<16384xi64>) -> tensor<16384xi1>\n          %c_49 = stablehlo.constant dense<0> : tensor<i64>\n          %52 = func.call @_where_1(%51, %49, %c_49) : (tensor<16384xi1>, tensor<16384xi64>, tensor<i64>) -> tensor<16384xi64>\n          %53 = stablehlo.broadcast_in_dim %iterArg_38, dims = [] : (tensor<i64>) -> tensor<16384xi64>\n          %54 = stablehlo.add %53, %52 : tensor<16384xi64>\n          %55 = func.call @_take_2(%iterArg_39, %54) : (tensor<18xf32>, tensor<16384xi64>) -> tensor<16384xf32>\n          %56 = func.call @_take_2(%iterArg_40, %54) : (tensor<18xf32>, tensor<16384xi64>) -> tensor<16384xf32>\n          %57 = stablehlo.broadcast_in_dim %iterArg_41, dims = [0] : (tensor<3xf32>) -> tensor<3x1xf32>\n          %58 = stablehlo.broadcast_in_dim %57, dims = [0, 1] : (tensor<3x1xf32>) -> tensor<3x16384xf32>\n          %c_50 = stablehlo.constant dense<2> : tensor<i32>\n          %59 = stablehlo.broadcast_in_dim %c_50, dims = [] : (tensor<i32>) -> tensor<1xi32>\n          %60 = \"stablehlo.scatter\"(%58, %59, %55) <{indices_are_sorted = true, scatter_dimension_numbers = #stablehlo.scatter<update_window_dims = [0], inserted_window_dims = [0], scatter_dims_to_operand_dims = [0]>, unique_indices = true}> ({\n          ^bb0(%arg9: tensor<f32>, %arg10: tensor<f32>):\n            stablehlo.return %arg10 : tensor<f32>\n          }) : (tensor<3x16384xf32>, tensor<1xi32>, tensor<16384xf32>) -> tensor<3x16384xf32>\n          %61 = stablehlo.dot_general %iterArg_42, %60, contracting_dims = [0] x [0], precision = [DEFAULT, DEFAULT] : (tensor<3xf32>, tensor<3x16384xf32>) -> tensor<16384xf32>\n          %62 = stablehlo.exponential %61 : tensor<16384xf32>\n          %63 = stablehlo.broadcast_in_dim %62, dims = [0] : (tensor<16384xf32>) -> tensor<16384x1xf32>\n          %64 = stablehlo.transpose %63, dims = [1, 0] : (tensor<16384x1xf32>) -> tensor<1x16384xf32>\n          %65 = stablehlo.broadcast_in_dim %iterArg_43, dims = [] : (tensor<f32>) -> tensor<16384xf32>\n          %66 = stablehlo.multiply %65, %56 : tensor<16384xf32>\n          %67 = func.call @_where_3(%51, %66, %c_49) : (tensor<16384xi1>, tensor<16384xf32>, tensor<i64>) -> tensor<16384xf32>\n          %68 = stablehlo.dot_general %64, %67, contracting_dims = [1] x [0], precision = [DEFAULT, DEFAULT] : (tensor<1x16384xf32>, tensor<16384xf32>) -> tensor<1xf32>\n          %69 = stablehlo.add %iterArg_46, %68 : tensor<1xf32>\n          stablehlo.return %iterArg_36, %iterArg_37, %iterArg_38, %iterArg_39, %iterArg_40, %iterArg_41, %iterArg_42, %iterArg_43, %45, %iterArg_45, %69 : tensor<16384xi64>, tensor<i64>, tensor<i64>, tensor<18xf32>, tensor<18xf32>, tensor<3xf32>, tensor<3xf32>, tensor<f32>, tensor<i64>, tensor<i64>, tensor<1xf32>\n        }\n        stablehlo.return %iterArg_18, %iterArg_19, %iterArg_20, %iterArg_21, %iterArg_22, %iterArg_23, %iterArg_24, %iterArg_25, %iterArg_26, %27, %iterArg_28, %44#10 : tensor<i64>, tensor<18xf32>, tensor<18xf32>, tensor<3xf32>, tensor<f32>, tensor<3xi32>, tensor<4xi64>, tensor<4xi64>, tensor<3xf32>, tensor<i64>, tensor<i64>, tensor<1xf32>\n      }\n      stablehlo.return %iterArg, %iterArg_3, %iterArg_4, %iterArg_5, %iterArg_6, %iterArg_7, %iterArg_8, %iterArg_9, %iterArg_10, %13, %iterArg_12, %26#11 : tensor<i64>, tensor<18xf32>, tensor<18xf32>, tensor<3xf32>, tensor<f32>, tensor<3xi32>, tensor<4xi64>, tensor<4xi64>, tensor<3xf32>, tensor<i64>, tensor<i64>, tensor<1xf32>\n    }\n    return %0, %12#11 : tensor<i64>, tensor<1xf32>\n  }\n  func.func private @_take(%arg0: tensor<4xi64>, %arg1: tensor<i32>) -> tensor<i64> {\n    %0 = stablehlo.broadcast_in_dim %arg1, dims = [] : (tensor<i32>) -> tensor<1xi32>\n    %1 = \"stablehlo.gather\"(%arg0, %0) <{dimension_numbers = #stablehlo.gather<collapsed_slice_dims = [0], start_index_map = [0]>, indices_are_sorted = false, slice_sizes = array<i64: 1>}> : (tensor<4xi64>, tensor<1xi32>) -> tensor<i64>\n    return %1 : tensor<i64>\n  }\n  func.func private @_take_0(%arg0: tensor<18xf32>, %arg1: tensor<i64>) -> tensor<f32> {\n    %0 = stablehlo.broadcast_in_dim %arg1, dims = [] : (tensor<i64>) -> tensor<1xi64>\n    %1 = \"stablehlo.gather\"(%arg0, %0) <{dimension_numbers = #stablehlo.gather<collapsed_slice_dims = [0], start_index_map = [0]>, indices_are_sorted = false, slice_sizes = array<i64: 1>}> : (tensor<18xf32>, tensor<1xi64>) -> tensor<f32>\n    return %1 : tensor<f32>\n  }\n  func.func private @floor_divide(%arg0: tensor<i64>, %arg1: tensor<i64>) -> tensor<i64> {\n    %0 = stablehlo.convert %arg1 : tensor<i64>\n    %1 = stablehlo.divide %arg0, %0 : tensor<i64>\n    %2 = stablehlo.sign %arg0 : tensor<i64>\n    %3 = stablehlo.sign %0 : tensor<i64>\n    %4 = stablehlo.compare  NE, %2, %3,  SIGNED : (tensor<i64>, tensor<i64>) -> tensor<i1>\n    %5 = stablehlo.remainder %arg0, %0 : tensor<i64>\n    %c = stablehlo.constant dense<0> : tensor<i64>\n    %6 = stablehlo.compare  NE, %5, %c,  SIGNED : (tensor<i64>, tensor<i64>) -> tensor<i1>\n    %7 = stablehlo.and %4, %6 : tensor<i1>\n    %c_0 = stablehlo.constant dense<1> : tensor<i64>\n    %8 = stablehlo.subtract %1, %c_0 : tensor<i64>\n    %9 = call @_where(%7, %8, %1) : (tensor<i1>, tensor<i64>, tensor<i64>) -> tensor<i64>\n    return %9 : tensor<i64>\n  }\n  func.func private @_where(%arg0: tensor<i1>, %arg1: tensor<i64>, %arg2: tensor<i64>) -> tensor<i64> {\n    %0 = stablehlo.select %arg0, %arg1, %arg2 : tensor<i1>, tensor<i64>\n    return %0 : tensor<i64>\n  }\n  func.func private @_where_1(%arg0: tensor<16384xi1>, %arg1: tensor<16384xi64>, %arg2: tensor<i64>) -> tensor<16384xi64> {\n    %0 = stablehlo.convert %arg2 : tensor<i64>\n    %1 = stablehlo.broadcast_in_dim %0, dims = [] : (tensor<i64>) -> tensor<16384xi64>\n    %2 = stablehlo.select %arg0, %arg1, %1 : tensor<16384xi1>, tensor<16384xi64>\n    return %2 : tensor<16384xi64>\n  }\n  func.func private @_take_2(%arg0: tensor<18xf32>, %arg1: tensor<16384xi64>) -> tensor<16384xf32> {\n    %0 = stablehlo.broadcast_in_dim %arg1, dims = [0] : (tensor<16384xi64>) -> tensor<16384x1xi64>\n    %1 = \"stablehlo.gather\"(%arg0, %0) <{dimension_numbers = #stablehlo.gather<collapsed_slice_dims = [0], start_index_map = [0], index_vector_dim = 1>, indices_are_sorted = false, slice_sizes = array<i64: 1>}> : (tensor<18xf32>, tensor<16384x1xi64>) -> tensor<16384xf32>\n    return %1 : tensor<16384xf32>\n  }\n  func.func private @_where_3(%arg0: tensor<16384xi1>, %arg1: tensor<16384xf32>, %arg2: tensor<i64>) -> tensor<16384xf32> {\n    %0 = stablehlo.convert %arg2 : (tensor<i64>) -> tensor<f32>\n    %1 = stablehlo.broadcast_in_dim %0, dims = [] : (tensor<f32>) -> tensor<16384xf32>\n    %2 = stablehlo.select %arg0, %arg1, %1 : tensor<16384xi1>, tensor<16384xf32>\n    return %2 : tensor<16384xf32>\n  }\n}\n"}
