{"case": "hlo", "tag": "smolyak_single_integral", "dialect": "stablehlo_or_hlo", "hlo": "module @jit__single_integral attributes {mhlo.num_partitions = 1 : i32, mhlo.num_replicas = 1 : i32} {\n  func.func public @main(%arg0: tensor<3xf32>, %arg1: tensor<18xf32>, %arg2: tensor<18xf32>, %arg3: tensor<4xi64>, %arg4: tensor<4xi64>, %arg5: tensor<4x3xi32>, %arg6: tensor<4xi64>) -> (tensor<1xf32> {jax.result_info = \"result\"}) {\n    %cst = stablehlo.constant dense<0.000000e+00> : tensor<f32>\n    %0 = stablehlo.broadcast_in_dim %cst, dims = [] : (tensor<f32>) -> tensor<1xf32>\n    %c = stablehlo.constant dense<0> : tensor<i64>\n    %c_0 = stablehlo.constant dense<0> : tensor<i64>\n    %1:10 = stablehlo.while(%iterArg = %arg5, %iterArg_1 = %arg6, %iterArg_2 = %arg4, %iterArg_3 = %arg3, %iterArg_4 = %arg1, %iterArg_5 = %arg2, %iterArg_6 = %arg0, %iterArg_7 = %c_0, %iterArg_8 = %c, %iterArg_9 = %0) : tensor<4x3xi32>, tensor<4xi64>, tensor<4xi64>, tensor<4xi64>, tensor<18xf32>, tensor<18xf32>, tensor<3xf32>, tensor<i64>, tensor<i64>, tensor<1xf32>\n     cond {\n      %c_10 = stablehlo.constant dense<4> : tensor<i64>\n      %2 = stablehlo.compare  LT, %iterArg_7, %c_10,  SIGNED : (tensor<i64>, tensor<i64>) -> tensor<i1>\n      stablehlo.return %2 : tensor<i1>\n    } do {\n      %2:2 = func.call @None(%iterArg, %iterArg_1, %iterArg_2, %iterArg_3, %iterArg_4, %iterArg_5, %iterArg_6, %iterArg_8, %iterArg_9) : (tensor<4x3xi32>, tensor<4xi64>, tensor<4xi64>, tensor<4xi64>, tensor<18xf32>, tensor<18xf32>, tensor<3xf32>, tensor<i64>, tensor<1xf32>) -> (tensor<i64>, tensor<1xf32>)\n      %c_10 = stablehlo.constant dense<1> : tensor<i64>\n      %3 = stablehlo.add %iterArg_7, %c_10 : tensor<i64>\n      stablehlo.return %iterArg, %iterArg_1, %iterArg_2, %iterArg_3, %iterArg_4, %iterArg_5, %iterArg_6, %3, %2#0, %2#1 : tensor<4x3xi32>, tensor<4xi64>, tensor<4xi64>, tensor<4xi64>, tensor<18xf32>, tensor<18xf32>, tensor<3xf32>, tensor<i64>, tensor<i64>, tensor<1xf32>\n    }\n    return %1#9 : tensor<1xf32>\n  }\n  func.func private @None(%arg0: tensor<4x3xi32>, %arg1: tensor<4xi64>, %arg2: tensor<4xi64>, %arg3: tensor<4xi64>, %arg4: tensor<18xf32>, %arg5: tensor<18xf32>, %arg6: tensor<3xf32>, %arg7: tensor<i64>, %arg8: tensor<1xf32>) -> (tensor<i64>, tensor<1xf32>) {\n    %c = stablehlo.constant dense<1> : tensor<i64>\n    %0 = stablehlo.add %arg7, %c : tensor<i64>\n    %c_0 = stablehlo.constant dense<0> : tensor<i64>\n    %1 = stablehlo.compare  LT, %arg7, %c_0,  SIGNED : (tensor<i64>, tensor<i64>) -> tensor<i1>\n    %2 = stablehlo.convert %arg7 : tensor<i64>\n    %c_1 = stablehlo.constant dense<4> : tensor<i64>\n    %3 = stablehlo.add %2, %c_1 : tensor<i64>\n    %4 = stablehlo.select %1, %3, %arg7 : tensor<i1>, tensor<i64>\n    %5 = stablehlo.dynamic_slice %arg0, %4, %c_0, sizes = [1, 3] : (tensor<4x3xi32>, tensor<i64>, tensor<i64>) -> tensor<1x3xi32>\n    %6 = stablehlo.reshape %5 : (tensor<1x3xi32>) -> tensor<3xi32>\n    %7 = stablehlo.compare  LT, %arg7, %c_0,  SIGNED : (tensor<i64>, tensor<i64>) -> tensor<i1>\n    %8 = stablehlo.convert %arg7 : tensor<i64>\n    %9 = stablehlo.add %8, %c_1 : tensor<i64>\n    %10 = stablehlo.select %7, %9, %arg7 : tensor<i1>, tensor<i64>\n    %11 = stablehlo.dynamic_slice %arg1, %10, sizes = [1] : (tensor<4xi64>, tensor<i64>) -> tensor<1xi64>\n    %12 = stablehlo.reshape %11 : (tensor<1xi64>) -> tensor<i64>\n    %c_2 = stablehlo.constant dense<1> : tensor<i32>\n    %13 = stablehlo.broadcast_in_dim %c_2, dims = [] : (tensor<i32>) -> tensor<3xi32>\n    %14 = stablehlo.subtract %6, %13 : tensor<3xi32>\n    %15 = call @_take(%arg2, %14) : (tensor<4xi64>, tensor<3xi32>) -> tensor<3xi64>\n    %16 = stablehlo.iota dim = 0 : tensor<16384xi64>\n    %c_3 = stablehlo.constant dense<16384> : tensor<i64>\n    %17 = stablehlo.add %12, %c_3 : tensor<i64>\n    %c_4 = stablehlo.constant dense<1> : tensor<i64>\n    %18 = stablehlo.subtract %17, %c_4 : tensor<i64>\n    %c_5 = stablehlo.constant dense<16384> : tensor<i64>\n    %19 = call @floor_divide(%18, %c_5) : (tensor<i64>, tensor<i64>) -> tensor<i64>\n    %20:11 = stablehlo.while(%iterArg = %16, %iterArg_6 = %12, %iterArg_7 = %15, %iterArg_8 = %6, %iterArg_9 = %arg3, %iterArg_10 = %arg4, %iterArg_11 = %arg5, %iterArg_12 = %arg6, %iterArg_13 = %c_0, %iterArg_14 = %19, %iterArg_15 = %arg8) : tensor<16384xi64>, tensor<i64>, tensor<3xi64>, tensor<3xi32>, tensor<4xi64>, tensor<18xf32>, tensor<18xf32>, tensor<3xf32>, tensor<i64>, tensor<i64>, tensor<1xf32>\n     cond {\n      %21 = stablehlo.compare  LT, %iterArg_13, %iterArg_14,  SIGNED : (tensor<i64>, tensor<i64>) -> tensor<i1>\n      stablehlo.return %21 : tensor<i1>\n    } do {\n      %c_16 = stablehlo.constant dense<1> : tensor<i64>\n      %21 = stablehlo.add %iterArg_13, %c_16 : tensor<i64>\n      %22 = stablehlo.convert %iterArg_13 : tensor<i64>\n      %c_17 = stablehlo.constant dense<16384> : tensor<i64>\n      %23 = stablehlo.multiply %22, %c_17 : tensor<i64>\n      %24 = stablehlo.broadcast_in_dim %23, dims = [] : (tensor<i64>) -> tensor<16384xi64>\n      %25 = stablehlo.add %24, %iterArg : tensor<16384xi64>\n      %26 = stablehlo.broadcast_in_dim %iterArg_6, dims = [] : (tensor<i64>) -> tensor<16384xi64>\n      %27 = stablehlo.compare  LT, %25, %26,  SIGNED : (tensor<16384xi64>, tensor<16384xi64>) -> tensor<16384xi1>\n      %c_18 = stablehlo.constant dense<0> : tensor<i64>\n      %28 = func.call @_where_0(%27, %25, %c_18) : (tensor<16384xi1>, tensor<16384xi64>, tensor<i64>) -> tensor<16384xi64>\n      %29 = func.call @_flip(%iterArg_7) : (tensor<3xi64>) -> tensor<3xi64>\n      %c_19 = stablehlo.constant dense<0> : tensor<i64>\n      %30 = stablehlo.broadcast_in_dim %c_19, dims = [] : (tensor<i64>) -> tensor<3x16384xi64>\n      %c_20 = stablehlo.constant dense<0> : tensor<i64>\n      %31:4 = stablehlo.while(%iterArg_22 = %29, %iterArg_23 = %c_20, %iterArg_24 = %28, %iterArg_25 = %30) : tensor<3xi64>, tensor<i64>, tensor<16384xi64>, tensor<3x16384xi64>\n       cond {\n        %c_26 = stablehlo.constant dense<3> : tensor<i64>\n        %49 = stablehlo.compare  LT, %iterArg_23, %c_26,  SIGNED : (tensor<i64>, tensor<i64>) -> tensor<i1>\n        stablehlo.return %49 : tensor<i1>\n      } do {\n        %49 = stablehlo.dynamic_slice %iterArg_22, %iterArg_23, sizes = [1] : (tensor<3xi64>, tensor<i64>) -> tensor<1xi64>\n        %50 = stablehlo.reshape %49 : (tensor<1xi64>) -> tensor<i64>\n        %51:2 = func.call @None_1(%iterArg_24, %50) : (tensor<16384xi64>, tensor<i64>) -> (tensor<16384xi64>, tensor<16384xi64>)\n        %52 = stablehlo.broadcast_in_dim %51#1, dims = [1] : (tensor<16384xi64>) -> tensor<1x16384xi64>\n        %c_26 = stablehlo.constant dense<0> : tensor<i64>\n        %53 = stablehlo.dynamic_update_slice %iterArg_25, %52, %iterArg_23, %c_26 : (tensor<3x16384xi64>, tensor<1x16384xi64>, tensor<i64>, tensor<i64>) -> tensor<3x16384xi64>\n        %c_27 = stablehlo.constant dense<1> : tensor<i64>\n        %54 = stablehlo.add %iterArg_23, %c_27 : tensor<i64>\n        stablehlo.return %iterArg_22, %54, %51#0, %53 : tensor<3xi64>, tensor<i64>, tensor<16384xi64>, tensor<3x16384xi64>\n      }\n      %32 = func.call @_flip_5(%31#3) : (tensor<3x16384xi64>) -> tensor<3x16384xi64>\n      %c_21 = stablehlo.constant dense<1> : tensor<i32>\n      %33 = stablehlo.broadcast_in_dim %c_21, dims = [] : (tensor<i32>) -> tensor<3xi32>\n      %34 = stablehlo.subtract %iterArg_8, %33 : tensor<3xi32>\n      %35 = func.call @_take_6(%iterArg_9, %34) : (tensor<4xi64>, tensor<3xi32>) -> tensor<3xi64>\n      %36 = stablehlo.broadcast_in_dim %35, dims = [0] : (tensor<3xi64>) -> tensor<3x1xi64>\n      %37 = stablehlo.broadcast_in_dim %36, dims = [0, 1] : (tensor<3x1xi64>) -> tensor<3x16384xi64>\n      %38 = stablehlo.add %37, %32 : tensor<3x16384xi64>\n      %39 = func.call @_take_7(%iterArg_10, %38) : (tensor<18xf32>, tensor<3x16384xi64>) -> tensor<3x16384xf32>\n      %40 = func.call @_take_7(%iterArg_11, %38) : (tensor<18xf32>, tensor<3x16384xi64>) -> tensor<3x16384xf32>\n      %cst = stablehlo.constant dense<1.000000e+00> : tensor<f32>\n      %41 = stablehlo.reduce(%40 init: %cst) applies stablehlo.multiply across dimensions = [0] : (tensor<3x16384xf32>, tensor<f32>) -> tensor<16384xf32>\n      %42 = func.call @_where_8(%27, %41, %c_18) : (tensor<16384xi1>, tensor<16384xf32>, tensor<i64>) -> tensor<16384xf32>\n      %43 = stablehlo.dot_general %iterArg_12, %39, contracting_dims = [0] x [0], precision = [DEFAULT, DEFAULT] : (tensor<3xf32>, tensor<3x16384xf32>) -> tensor<16384xf32>\n      %44 = stablehlo.exponential %43 : tensor<16384xf32>\n      %45 = stablehlo.broadcast_in_dim %44, dims = [0] : (tensor<16384xf32>) -> tensor<16384x1xf32>\n      %46 = stablehlo.transpose %45, dims = [1, 0] : (tensor<16384x1xf32>) -> tensor<1x16384xf32>\n      %47 = stablehlo.dot_general %46, %42, contracting_dims = [1] x [0], precision = [DEFAULT, DEFAULT] : (tensor<1x16384xf32>, tensor<16384xf32>) -> tensor<1xf32>\n      %48 = stablehlo.add %iterArg_15, %47 : tensor<1xf32>\n      stablehlo.return %iterArg, %iterArg_6, %iterArg_7, %iterArg_8, %iterArg_9, %iterArg_10, %iterArg_11, %iterArg_12, %21, %iterArg_14, %48 : tensor<16384xi64>, tensor<i64>, tensor<3xi64>, tensor<3xi32>, tensor<4xi64>, tensor<18xf32>, tensor<18xf32>, tensor<3xf32>, tensor<i64>, tensor<i64>, tensor<1xf32>\n    }\n    return %0, %20#10 : tensor<i64>, tensor<1xf32>\n  }\n  func.func private @_take(%arg0: tensor<4xi64>, %arg1: tensor<3xi32>) -> tensor<3xi64> {\n    %0 = stablehlo.broadcast_in_dim %arg1, dims = [0] : (tensor<3xi32>) -> tensor<3x1xi32>\n    %1 = \"stablehlo.gather\"(%arg0, %0) <{dimension_numbers = #stablehlo.gather<collapsed_slice_dims = [0], start_index_map = [0], index_vector_dim = 1>, indices_are_sorted = false, slice_sizes = array<i64: 1>}> : (tensor<4xi64>, tensor<3x1xi32>) -> tensor<3xi64>\n    return %1 : tensor<3xi64>\n  }\n  func.func private @floor_divide(%arg0: tensor<i64>, %arg1: tensor<i64>) -> tensor<i64> {\n    %0 = stablehlo.convert %arg1 : tensor<i64>\n    %1 = stablehlo.divide %arg0, %0 : tensor<i64>\n    %2 = stablehlo.sign %arg0 : tensor<i64>\n    %3 = stablehlo.sign %0 : tensor<i64>\n    %4 = stablehlo.compare  NE, %2, %3,  SIGNED : (tensor<i64>, tensor<i64>) -> tensor<i1>\n    %5 = stablehlo.remainder %arg0, %0 : tensor<i64>\n    %c = stablehlo.constant dense<0> : tensor<i64>\n    %6 = stablehlo.compare  NE, %5, %c,  SIGNED : (tensor<i64>, tensor<i64>) -> tensor<i1>\n    %7 = stablehlo.and %4, %6 : tensor<i1>\n    %c_0 = stablehlo.constant dense<1> : tensor<i64>\n    %8 = stablehlo.subtract %1, %c_0 : tensor<i64>\n    %9 = call @_where(%7, %8, %1) : (tensor<i1>, tensor<i64>, tensor<i64>) -> tensor<i64>\n    return %9 : tensor<i64>\n  }\n  func.func private @_where(%arg0: tensor<i1>, %arg1: tensor<i64>, %arg2: tensor<i64>) -> tensor<i64> {\n    %0 = stablehlo.select %arg0, %arg1, %arg2 : tensor<i1>, tensor<i64>\n    return %0 : tensor<i64>\n  }\n  func.func private @_where_0(%arg0: tensor<16384xi1>, %arg1: tensor<16384xi64>, %arg2: tensor<i64>) -> tensor<16384xi64> {\n    %0 = stablehlo.convert %arg2 : tensor<i64>\n    %1 = stablehlo.broadcast_in_dim %0, dims = [] : (tensor<i64>) -> tensor<16384xi64>\n    %2 = stablehlo.select %arg0, %arg1, %1 : tensor<16384xi1>, tensor<16384xi64>\n    return %2 : tensor<16384xi64>\n  }\n  func.func private @_flip(%arg0: tensor<3xi64>) -> tensor<3xi64> {\n    %0 = stablehlo.reverse %arg0, dims = [0] : tensor<3xi64>\n    return %0 : tensor<3xi64>\n  }\n  func.func private @None_1(%arg0: tensor<16384xi64>, %arg1: tensor<i64>) -> (tensor<16384xi64>, tensor<16384xi64>) {\n    %0 = call @remainder(%arg0, %arg1) : (tensor<16384xi64>, tensor<i64>) -> tensor<16384xi64>\n    %1 = call @floor_divide_3(%arg0, %arg1) : (tensor<16384xi64>, tensor<i64>) -> tensor<16384xi64>\n    return %1, %0 : tensor<16384xi64>, tensor<16384xi64>\n  }\n  func.func private @remainder(%arg0: tensor<16384xi64>, %arg1: tensor<i64>) -> tensor<16384xi64> {\n    %c = stablehlo.constant dense<0> : tensor<i64>\n    %0 = stablehlo.compare  EQ, %arg1, %c,  SIGNED : (tensor<i64>, tensor<i64>) -> tensor<i1>\n    %c_0 = stablehlo.constant dense<1> : tensor<i64>\n    %1 = call @_where_2(%0, %c_0, %arg1) : (tensor<i1>, tensor<i64>, tensor<i64>) -> tensor<i64>\n    %2 = stablehlo.broadcast_in_dim %1, dims = [] : (tensor<i64>) -> tensor<16384xi64>\n    %3 = stablehlo.remainder %arg0, %2 : tensor<16384xi64>\n    %4 = stablehlo.broadcast_in_dim %c, dims = [] : (tensor<i64>) -> tensor<16384xi64>\n    %5 = stablehlo.compare  NE, %3, %4,  SIGNED : (tensor<16384xi64>, tensor<16384xi64>) -> tensor<16384xi1>\n    %6 = stablehlo.broadcast_in_dim %c, dims = [] : (tensor<i64>) -> tensor<16384xi64>\n    %7 = stablehlo.compare  LT, %3, %6,  SIGNED : (tensor<16384xi64>, tensor<16384xi64>) -> tensor<16384xi1>\n    %8 = stablehlo.compare  LT, %1, %c,  SIGNED : (tensor<i64>, tensor<i64>) -> tensor<i1>\n    %9 = stablehlo.broadcast_in_dim %8, dims = [] : (tensor<i1>) -> tensor<16384xi1>\n    %10 = stablehlo.compare  NE, %7, %9,  UNSIGNED : (tensor<16384xi1>, tensor<16384xi1>) -> tensor<16384xi1>\n    %11 = stablehlo.and %10, %5 : tensor<16384xi1>\n    %12 = stablehlo.broadcast_in_dim %1, dims = [] : (tensor<i64>) -> tensor<16384xi64>\n    %13 = stablehlo.add %3, %12 : tensor<16384xi64>\n    %14 = stablehlo.select %11, %13, %3 : tensor<16384xi1>, tensor<16384xi64>\n    return %14 : tensor<16384xi64>\n  }\n  func.func private @_where_2(%arg0: tensor<i1>, %arg1: tensor<i64>, %arg2: tensor<i64>) -> tensor<i64> {\n    %0 = stablehlo.select %arg0, %arg1, %arg2 : tensor<i1>, tensor<i64>\n    return %0 : tensor<i64>\n  }\n  func.func private @floor_divide_3(%arg0: tensor<16384xi64>, %arg1: tensor<i64>) -> tensor<16384xi64> {\n    %0 = stablehlo.broadcast_in_dim %arg1, dims = [] : (tensor<i64>) -> tensor<16384xi64>\n    %1 = stablehlo.divide %arg0, %0 : tensor<16384xi64>\n    %2 = stablehlo.sign %arg0 : tensor<16384xi64>\n    %3 = stablehlo.sign %arg1 : tensor<i64>\n    %4 = stablehlo.broadcast_in_dim %3, dims = [] : (tensor<i64>) -> tensor<16384xi64>\n    %5 = stablehlo.compare  NE, %2, %4,  SIGNED : (tensor<16384xi64>, tensor<16384xi64>) -> tensor<16384xi1>\n    %6 = stablehlo.broadcast_in_dim %arg1, dims = [] : (tensor<i64>) -> tensor<16384xi64>\n    %7 = stablehlo.remainder %arg0, %6 : tensor<16384xi64>\n    %c = stablehlo.constant dense<0> : tensor<i64>\n    %8 = stablehlo.broadcast_in_dim %c, dims = [] : (tensor<i64>) -> tensor<16384xi64>\n    %9 = stablehlo.compare  NE, %7, %8,  SIGNED : (tensor<16384xi64>, tensor<16384xi64>) -> tensor<16384xi1>\n    %10 = stablehlo.and %5, %9 : tensor<16384xi1>\n    %c_0 = stablehlo.constant dense<1> : tensor<i64>\n    %11 = stablehlo.broadcast_in_dim %c_0, dims = [] : (tensor<i64>) -> tensor<16384xi64>\n    %12 = stablehlo.subtract %1, %11 : tensor<16384xi64>\n    %13 = call @_where_4(%10, %12, %1) : (tensor<16384xi1>, tensor<16384xi64>, tensor<16384xi64>) -> tensor<16384xi64>\n    return %13 : tensor<16384xi64>\n  }\n  func.func private @_where_4(%arg0: tensor<16384xi1>, %arg1: tensor<16384xi64>, %arg2: tensor<16384xi64>) -> tensor<16384xi64> {\n    %0 = stablehlo.select %arg0, %arg1, %arg2 : tensor<16384xi1>, tensor<16384xi64>\n    return %0 : tensor<16384xi64>\n  }\n  func.func private @_flip_5(%arg0: tensor<3x16384xi64>) -> tensor<3x16384xi64> {\n    %0 = stablehlo.reverse %arg0, dims = [0] : tensor<3x16384xi64>\n    return %0 : tensor<3x16384xi64>\n  }\n  func.func private @_take_6(%arg0: tensor<4xi64>, %arg1: tensor<3xi32>) -> tensor<3xi64> {\n    %0 = stablehlo.broadcast_in_dim %arg1, dims = [0] : (tensor<3xi32>) -> tensor<3x1xi32>\n    %1 = \"stablehlo.gather\"(%arg0, %0) <{dimension_numbers = #stablehlo.gather<collapsed_slice_dims = [0], start_index_map = [0], index_vector_dim = 1>, indices_are_sorted = false, slice_sizes = array<i64: 1>}> : (tensor<4xi64>, tensor<3x1xi32>) -> tensor<3xi64>\n    return %1 : tensor<3xi64>\n  }\n  func.func private @_take_7(%arg0: tensor<18xf32>, %arg1: tensor<3x16384xi64>) -> tensor<3x16384xf32> {\n    %0 = stablehlo.broadcast_in_dim %arg1, dims = [0, 1] : (tensor<3x16384xi64>) -> tensor<3x16384x1xi64>\n    %1 = \"stablehlo.gather\"(%arg0, %0) <{dimension_numbers = #stablehlo.gather<collapsed_slice_dims = [0], start_index_map = [0], index_vector_dim = 2>, indices_are_sorted = false, slice_sizes = array<i64: 1>}> : (tensor<18xf32>, tensor<3x16384x1xi64>) -> tensor<3x16384xf32>\n    return %1 : tensor<3x16384xf32>\n  }\n  func.func private @_where_8(%arg0: tensor<16384xi1>, %arg1: tensor<16384xf32>, %arg2: tensor<i64>) -> tensor<16384xf32> {\n    %0 = stablehlo.convert %arg2 : (tensor<i64>) -> tensor<f32>\n    %1 = stablehlo.broadcast_in_dim %0, dims = [] : (tensor<f32>) -> tensor<16384xf32>\n    %2 = stablehlo.select %arg0, %arg1, %1 : tensor<16384xi1>, tensor<16384xf32>\n    return %2 : tensor<16384xf32>\n  }\n}\n"}
{"case": "hlo", "tag": "smolyak_repeated_integral", "dialect": "stablehlo_or_hlo", "hlo": "module @jit__repeated_integral attributes {mhlo.num_partitions = 1 : i32, mhlo.num_replicas = 1 : i32} {\n  func.func public @main(%arg0: tensor<3xf32>, %arg1: tensor<18xf32>, %arg2: tensor<18xf32>, %arg3: tensor<4xi64>, %arg4: tensor<4xi64>, %arg5: tensor<4x3xi32>, %arg6: tensor<4xi64>, %arg7: tensor<i64>) -> (tensor<1xf32> {jax.result_info = \"result\"}) {\n    %cst = stablehlo.constant dense<0.000000e+00> : tensor<f32>\n    %0 = stablehlo.broadcast_in_dim %cst, dims = [] : (tensor<f32>) -> tensor<1xf32>\n    %c = stablehlo.constant dense<0> : tensor<i64>\n    %1:10 = stablehlo.while(%iterArg = %arg0, %iterArg_0 = %arg5, %iterArg_1 = %arg6, %iterArg_2 = %arg4, %iterArg_3 = %arg3, %iterArg_4 = %arg1, %iterArg_5 = %arg2, %iterArg_6 = %c, %iterArg_7 = %arg7, %iterArg_8 = %0) : tensor<3xf32>, tensor<4x3xi32>, tensor<4xi64>, tensor<4xi64>, tensor<4xi64>, tensor<18xf32>, tensor<18xf32>, tensor<i64>, tensor<i64>, tensor<1xf32>\n     cond {\n      %5 = stablehlo.compare  LT, %iterArg_6, %iterArg_7,  SIGNED : (tensor<i64>, tensor<i64>) -> tensor<i1>\n      stablehlo.return %5 : tensor<i1>\n    } do {\n      %c_9 = stablehlo.constant dense<1> : tensor<i64>\n      %5 = stablehlo.add %iterArg_6, %c_9 : tensor<i64>\n      %cst_10 = stablehlo.constant dense<0.000000e+00> : tensor<f32>\n      %6 = stablehlo.broadcast_in_dim %cst_10, dims = [] : (tensor<f32>) -> tensor<3xf32>\n      %7 = stablehlo.dot_general %iterArg, %6, contracting_dims = [0] x [0], precision = [DEFAULT, DEFAULT] : (tensor<3xf32>, tensor<3xf32>) -> tensor<f32>\n      %8 = stablehlo.exponential %7 : tensor<f32>\n      %9 = stablehlo.broadcast_in_dim %8, dims = [] : (tensor<f32>) -> tensor<1xf32>\n      %10 = stablehlo.broadcast_in_dim %cst_10, dims = [] : (tensor<f32>) -> tensor<1xf32>\n      %c_11 = stablehlo.constant dense<0> : tensor<i64>\n      %c_12 = stablehlo.constant dense<0> : tensor<i64>\n      %11:10 = stablehlo.while(%iterArg_13 = %iterArg_0, %iterArg_14 = %iterArg_1, %iterArg_15 = %iterArg_2, %iterArg_16 = %iterArg_3, %iterArg_17 = %iterArg_4, %iterArg_18 = %iterArg_5, %iterArg_19 = %iterArg, %iterArg_20 = %c_12, %iterArg_21 = %c_11, %iterArg_22 = %10) : tensor<4x3xi32>, tensor<4xi64>, tensor<4xi64>, tensor<4xi64>, tensor<18xf32>, tensor<18xf32>, tensor<3xf32>, tensor<i64>, tensor<i64>, tensor<1xf32>\n       cond {\n        %c_23 = stablehlo.constant dense<4> : tensor<i64>\n        %13 = stablehlo.compare  LT, %iterArg_20, %c_23,  SIGNED : (tensor<i64>, tensor<i64>) -> tensor<i1>\n        stablehlo.return %13 : tensor<i1>\n      } do {\n        %13:2 = func.call @None(%iterArg_13, %iterArg_14, %iterArg_15, %iterArg_16, %iterArg_17, %iterArg_18, %iterArg_19, %iterArg_21, %iterArg_22) : (tensor<4x3xi32>, tensor<4xi64>, tensor<4xi64>, tensor<4xi64>, tensor<18xf32>, tensor<18xf32>, tensor<3xf32>, tensor<i64>, tensor<1xf32>) -> (tensor<i64>, tensor<1xf32>)\n        %c_23 = stablehlo.constant dense<1> : tensor<i64>\n        %14 = stablehlo.add %iterArg_20, %c_23 : tensor<i64>\n        stablehlo.return %iterArg_13, %iterArg_14, %iterArg_15, %iterArg_16, %iterArg_17, %iterArg_18, %iterArg_19, %14, %13#0, %13#1 : tensor<4x3xi32>, tensor<4xi64>, tensor<4xi64>, tensor<4xi64>, tensor<18xf32>, tensor<18xf32>, tensor<3xf32>, tensor<i64>, tensor<i64>, tensor<1xf32>\n      }\n      %12 = stablehlo.add %iterArg_8, %11#9 : tensor<1xf32>\n      stablehlo.return %iterArg, %iterArg_0, %iterArg_1, %iterArg_2, %iterArg_3, %iterArg_4, %iterArg_5, %5, %iterArg_7, %12 : tensor<3xf32>, tensor<4x3xi32>, tensor<4xi64>, tensor<4xi64>, tensor<4xi64>, tensor<18xf32>, tensor<18xf32>, tensor<i64>, tensor<i64>, tensor<1xf32>\n    }\n    %2 = stablehlo.convert %arg7 : (tensor<i64>) -> tensor<f32>\n    %3 = stablehlo.broadcast_in_dim %2, dims = [] : (tensor<f32>) -> tensor<1xf32>\n    %4 = stablehlo.divide %1#9, %3 : tensor<1xf32>\n    return %4 : tensor<1xf32>\n  }\n  func.func private @None(%arg0: tensor<4x3xi32>, %arg1: tensor<4xi64>, %arg2: tensor<4xi64>, %arg3: tensor<4xi64>, %arg4: tensor<18xf32>, %arg5: tensor<18xf32>, %arg6: tensor<3xf32>, %arg7: tensor<i64>, %arg8: tensor<1xf32>) -> (tensor<i64>, tensor<1xf32>) {\n    %c = stablehlo.constant dense<1> : tensor<i64>\n    %0 = stablehlo.add %arg7, %c : tensor<i64>\n    %c_0 = stablehlo.constant dense<0> : tensor<i64>\n    %1 = stablehlo.compare  LT, %arg7, %c_0,  SIGNED : (tensor<i64>, tensor<i64>) -> tensor<i1>\n    %2 = stablehlo.convert %arg7 : tensor<i64>\n    %c_1 = stablehlo.constant dense<4> : tensor<i64>\n    %3 = stablehlo.add %2, %c_1 : tensor<i64>\n    %4 = stablehlo.select %1, %3, %arg7 : tensor<i1>, tensor<i64>\n    %5 = stablehlo.dynamic_slice %arg0, %4, %c_0, sizes = [1, 3] : (tensor<4x3xi32>, tensor<i64>, tensor<i64>) -> tensor<1x3xi32>\n    %6 = stablehlo.reshape %5 : (tensor<1x3xi32>) -> tensor<3xi32>\n    %7 = stablehlo.compare  LT, %arg7, %c_0,  SIGNED : (tensor<i64>, tensor<i64>) -> tensor<i1>\n    %8 = stablehlo.convert %arg7 : tensor<i64>\n    %9 = stablehlo.add %8, %c_1 : tensor<i64>\n    %10 = stablehlo.select %7, %9, %arg7 : tensor<i1>, tensor<i64>\n    %11 = stablehlo.dynamic_slice %arg1, %10, sizes = [1] : (tensor<4xi64>, tensor<i64>) -> tensor<1xi64>\n    %12 = stablehlo.reshape %11 : (tensor<1xi64>) -> tensor<i64>\n    %c_2 = stablehlo.constant dense<1> : tensor<i32>\n    %13 = stablehlo.broadcast_in_dim %c_2, dims = [] : (tensor<i32>) -> tensor<3xi32>\n    %14 = stablehlo.subtract %6, %13 : tensor<3xi32>\n    %15 = call @_take(%arg2, %14) : (tensor<4xi64>, tensor<3xi32>) -> tensor<3xi64>\n    %16 = stablehlo.iota dim = 0 : tensor<16384xi64>\n    %c_3 = stablehlo.constant dense<16384> : tensor<i64>\n    %17 = stablehlo.add %12, %c_3 : tensor<i64>\n    %c_4 = stablehlo.constant dense<1> : tensor<i64>\n    %18 = stablehlo.subtract %17, %c_4 : tensor<i64>\n    %c_5 = stablehlo.constant dense<16384> : tensor<i64>\n    %19 = call @floor_divide(%18, %c_5) : (tensor<i64>, tensor<i64>) -> tensor<i64>\n    %20:11 = stablehlo.while(%iterArg = %16, %iterArg_6 = %12, %iterArg_7 = %15, %iterArg_8 = %6, %iterArg_9 = %arg3, %iterArg_10 = %arg4, %iterArg_11 = %arg5, %iterArg_12 = %arg6, %iterArg_13 = %c_0, %iterArg_14 = %19, %iterArg_15 = %arg8) : tensor<16384xi64>, tensor<i64>, tensor<3xi64>, tensor<3xi32>, tensor<4xi64>, tensor<18xf32>, tensor<18xf32>, tensor<3xf32>, tensor<i64>, tensor<i64>, tensor<1xf32>\n     cond {\n      %21 = stablehlo.compare  LT, %iterArg_13, %iterArg_14,  SIGNED : (tensor<i64>, tensor<i64>) -> tensor<i1>\n      stablehlo.return %21 : tensor<i1>\n    } do {\n      %c_16 = stablehlo.constant dense<1> : tensor<i64>\n      %21 = stablehlo.add %iterArg_13, %c_16 : tensor<i64>\n      %22 = stablehlo.convert %iterArg_13 : tensor<i64>\n      %c_17 = stablehlo.constant dense<16384> : tensor<i64>\n      %23 = stablehlo.multiply %22, %c_17 : tensor<i64>\n      %24 = stablehlo.broadcast_in_dim %23, dims = [] : (tensor<i64>) -> tensor<16384xi64>\n      %25 = stablehlo.add %24, %iterArg : tensor<16384xi64>\n      %26 = stablehlo.broadcast_in_dim %iterArg_6, dims = [] : (tensor<i64>) -> tensor<16384xi64>\n      %27 = stablehlo.compare  LT, %25, %26,  SIGNED : (tensor<16384xi64>, tensor<16384xi64>) -> tensor<16384xi1>\n      %c_18 = stablehlo.constant dense<0> : tensor<i64>\n      %28 = func.call @_where_0(%27, %25, %c_18) : (tensor<16384xi1>, tensor<16384xi64>, tensor<i64>) -> tensor<16384xi64>\n      %29 = func.call @_flip(%iterArg_7) : (tensor<3xi64>) -> tensor<3xi64>\n      %c_19 = stablehlo.constant dense<0> : tensor<i64>\n      %30 = stablehlo.broadcast_in_dim %c_19, dims = [] : (tensor<i64>) -> tensor<3x16384xi64>\n      %c_20 = stablehlo.constant dense<0> : tensor<i64>\n      %31:4 = stablehlo.while(%iterArg_22 = %29, %iterArg_23 = %c_20, %iterArg_24 = %28, %iterArg_25 = %30) : tensor<3xi64>, tensor<i64>, tensor<16384xi64>, tensor<3x16384xi64>\n       cond {\n        %c_26 = stablehlo.constant dense<3> : tensor<i64>\n        %49 = stablehlo.compare  LT, %iterArg_23, %c_26,  SIGNED : (tensor<i64>, tensor<i64>) -> tensor<i1>\n        stablehlo.return %49 : tensor<i1>\n      } do {\n        %49 = stablehlo.dynamic_slice %iterArg_22, %iterArg_23, sizes = [1] : (tensor<3xi64>, tensor<i64>) -> tensor<1xi64>\n        %50 = stablehlo.reshape %49 : (tensor<1xi64>) -> tensor<i64>\n        %51:2 = func.call @None_1(%iterArg_24, %50) : (tensor<16384xi64>, tensor<i64>) -> (tensor<16384xi64>, tensor<16384xi64>)\n        %52 = stablehlo.broadcast_in_dim %51#1, dims = [1] : (tensor<16384xi64>) -> tensor<1x16384xi64>\n        %c_26 = stablehlo.constant dense<0> : tensor<i64>\n        %53 = stablehlo.dynamic_update_slice %iterArg_25, %52, %iterArg_23, %c_26 : (tensor<3x16384xi64>, tensor<1x16384xi64>, tensor<i64>, tensor<i64>) -> tensor<3x16384xi64>\n        %c_27 = stablehlo.constant dense<1> : tensor<i64>\n        %54 = stablehlo.add %iterArg_23, %c_27 : tensor<i64>\n        stablehlo.return %iterArg_22, %54, %51#0, %53 : tensor<3xi64>, tensor<i64>, tensor<16384xi64>, tensor<3x16384xi64>\n      }\n      %32 = func.call @_flip_4(%31#3) : (tensor<3x16384xi64>) -> tensor<3x16384xi64>\n      %c_21 = stablehlo.constant dense<1> : tensor<i32>\n      %33 = stablehlo.broadcast_in_dim %c_21, dims = [] : (tensor<i32>) -> tensor<3xi32>\n      %34 = stablehlo.subtract %iterArg_8, %33 : tensor<3xi32>\n      %35 = func.call @_take(%iterArg_9, %34) : (tensor<4xi64>, tensor<3xi32>) -> tensor<3xi64>\n      %36 = stablehlo.broadcast_in_dim %35, dims = [0] : (tensor<3xi64>) -> tensor<3x1xi64>\n      %37 = stablehlo.broadcast_in_dim %36, dims = [0, 1] : (tensor<3x1xi64>) -> tensor<3x16384xi64>\n      %38 = stablehlo.add %37, %32 : tensor<3x16384xi64>\n      %39 = func.call @_take_5(%iterArg_10, %38) : (tensor<18xf32>, tensor<3x16384xi64>) -> tensor<3x16384xf32>\n      %40 = func.call @_take_5(%iterArg_11, %38) : (tensor<18xf32>, tensor<3x16384xi64>) -> tensor<3x16384xf32>\n      %cst = stablehlo.constant dense<1.000000e+00> : tensor<f32>\n      %41 = stablehlo.reduce(%40 init: %cst) applies stablehlo.multiply across dimensions = [0] : (tensor<3x16384xf32>, tensor<f32>) -> tensor<16384xf32>\n      %42 = func.call @_where_6(%27, %41, %c_18) : (tensor<16384xi1>, tensor<16384xf32>, tensor<i64>) -> tensor<16384xf32>\n      %43 = stablehlo.dot_general %iterArg_12, %39, contracting_dims = [0] x [0], precision = [DEFAULT, DEFAULT] : (tensor<3xf32>, tensor<3x16384xf32>) -> tensor<16384xf32>\n      %44 = stablehlo.exponential %43 : tensor<16384xf32>\n      %45 = stablehlo.broadcast_in_dim %44, dims = [0] : (tensor<16384xf32>) -> tensor<16384x1xf32>\n      %46 = stablehlo.transpose %45, dims = [1, 0] : (tensor<16384x1xf32>) -> tensor<1x16384xf32>\n      %47 = stablehlo.dot_general %46, %42, contracting_dims = [1] x [0], precision = [DEFAULT, DEFAULT] : (tensor<1x16384xf32>, tensor<16384xf32>) -> tensor<1xf32>\n      %48 = stablehlo.add %iterArg_15, %47 : tensor<1xf32>\n      stablehlo.return %iterArg, %iterArg_6, %iterArg_7, %iterArg_8, %iterArg_9, %iterArg_10, %iterArg_11, %iterArg_12, %21, %iterArg_14, %48 : tensor<16384xi64>, tensor<i64>, tensor<3xi64>, tensor<3xi32>, tensor<4xi64>, tensor<18xf32>, tensor<18xf32>, tensor<3xf32>, tensor<i64>, tensor<i64>, tensor<1xf32>\n    }\n    return %0, %20#10 : tensor<i64>, tensor<1xf32>\n  }\n  func.func private @_take(%arg0: tensor<4xi64>, %arg1: tensor<3xi32>) -> tensor<3xi64> {\n    %0 = stablehlo.broadcast_in_dim %arg1, dims = [0] : (tensor<3xi32>) -> tensor<3x1xi32>\n    %1 = \"stablehlo.gather\"(%arg0, %0) <{dimension_numbers = #stablehlo.gather<collapsed_slice_dims = [0], start_index_map = [0], index_vector_dim = 1>, indices_are_sorted = false, slice_sizes = array<i64: 1>}> : (tensor<4xi64>, tensor<3x1xi32>) -> tensor<3xi64>\n    return %1 : tensor<3xi64>\n  }\n  func.func private @floor_divide(%arg0: tensor<i64>, %arg1: tensor<i64>) -> tensor<i64> {\n    %0 = stablehlo.convert %arg1 : tensor<i64>\n    %1 = stablehlo.divide %arg0, %0 : tensor<i64>\n    %2 = stablehlo.sign %arg0 : tensor<i64>\n    %3 = stablehlo.sign %0 : tensor<i64>\n    %4 = stablehlo.compare  NE, %2, %3,  SIGNED : (tensor<i64>, tensor<i64>) -> tensor<i1>\n    %5 = stablehlo.remainder %arg0, %0 : tensor<i64>\n    %c = stablehlo.constant dense<0> : tensor<i64>\n    %6 = stablehlo.compare  NE, %5, %c,  SIGNED : (tensor<i64>, tensor<i64>) -> tensor<i1>\n    %7 = stablehlo.and %4, %6 : tensor<i1>\n    %c_0 = stablehlo.constant dense<1> : tensor<i64>\n    %8 = stablehlo.subtract %1, %c_0 : tensor<i64>\n    %9 = call @_where(%7, %8, %1) : (tensor<i1>, tensor<i64>, tensor<i64>) -> tensor<i64>\n    return %9 : tensor<i64>\n  }\n  func.func private @_where(%arg0: tensor<i1>, %arg1: tensor<i64>, %arg2: tensor<i64>) -> tensor<i64> {\n    %0 = stablehlo.select %arg0, %arg1, %arg2 : tensor<i1>, tensor<i64>\n    return %0 : tensor<i64>\n  }\n  func.func private @_where_0(%arg0: tensor<16384xi1>, %arg1: tensor<16384xi64>, %arg2: tensor<i64>) -> tensor<16384xi64> {\n    %0 = stablehlo.convert %arg2 : tensor<i64>\n    %1 = stablehlo.broadcast_in_dim %0, dims = [] : (tensor<i64>) -> tensor<16384xi64>\n    %2 = stablehlo.select %arg0, %arg1, %1 : tensor<16384xi1>, tensor<16384xi64>\n    return %2 : tensor<16384xi64>\n  }\n  func.func private @_flip(%arg0: tensor<3xi64>) -> tensor<3xi64> {\n    %0 = stablehlo.reverse %arg0, dims = [0] : tensor<3xi64>\n    return %0 : tensor<3xi64>\n  }\n  func.func private @None_1(%arg0: tensor<16384xi64>, %arg1: tensor<i64>) -> (tensor<16384xi64>, tensor<16384xi64>) {\n    %0 = call @remainder(%arg0, %arg1) : (tensor<16384xi64>, tensor<i64>) -> tensor<16384xi64>\n    %1 = call @floor_divide_2(%arg0, %arg1) : (tensor<16384xi64>, tensor<i64>) -> tensor<16384xi64>\n    return %1, %0 : tensor<16384xi64>, tensor<16384xi64>\n  }\n  func.func private @remainder(%arg0: tensor<16384xi64>, %arg1: tensor<i64>) -> tensor<16384xi64> {\n    %c = stablehlo.constant dense<0> : tensor<i64>\n    %0 = stablehlo.compare  EQ, %arg1, %c,  SIGNED : (tensor<i64>, tensor<i64>) -> tensor<i1>\n    %c_0 = stablehlo.constant dense<1> : tensor<i64>\n    %1 = call @_where(%0, %c_0, %arg1) : (tensor<i1>, tensor<i64>, tensor<i64>) -> tensor<i64>\n    %2 = stablehlo.broadcast_in_dim %1, dims = [] : (tensor<i64>) -> tensor<16384xi64>\n    %3 = stablehlo.remainder %arg0, %2 : tensor<16384xi64>\n    %4 = stablehlo.broadcast_in_dim %c, dims = [] : (tensor<i64>) -> tensor<16384xi64>\n    %5 = stablehlo.compare  NE, %3, %4,  SIGNED : (tensor<16384xi64>, tensor<16384xi64>) -> tensor<16384xi1>\n    %6 = stablehlo.broadcast_in_dim %c, dims = [] : (tensor<i64>) -> tensor<16384xi64>\n    %7 = stablehlo.compare  LT, %3, %6,  SIGNED : (tensor<16384xi64>, tensor<16384xi64>) -> tensor<16384xi1>\n    %8 = stablehlo.compare  LT, %1, %c,  SIGNED : (tensor<i64>, tensor<i64>) -> tensor<i1>\n    %9 = stablehlo.broadcast_in_dim %8, dims = [] : (tensor<i1>) -> tensor<16384xi1>\n    %10 = stablehlo.compare  NE, %7, %9,  UNSIGNED : (tensor<16384xi1>, tensor<16384xi1>) -> tensor<16384xi1>\n    %11 = stablehlo.and %10, %5 : tensor<16384xi1>\n    %12 = stablehlo.broadcast_in_dim %1, dims = [] : (tensor<i64>) -> tensor<16384xi64>\n    %13 = stablehlo.add %3, %12 : tensor<16384xi64>\n    %14 = stablehlo.select %11, %13, %3 : tensor<16384xi1>, tensor<16384xi64>\n    return %14 : tensor<16384xi64>\n  }\n  func.func private @floor_divide_2(%arg0: tensor<16384xi64>, %arg1: tensor<i64>) -> tensor<16384xi64> {\n    %0 = stablehlo.broadcast_in_dim %arg1, dims = [] : (tensor<i64>) -> tensor<16384xi64>\n    %1 = stablehlo.divide %arg0, %0 : tensor<16384xi64>\n    %2 = stablehlo.sign %arg0 : tensor<16384xi64>\n    %3 = stablehlo.sign %arg1 : tensor<i64>\n    %4 = stablehlo.broadcast_in_dim %3, dims = [] : (tensor<i64>) -> tensor<16384xi64>\n    %5 = stablehlo.compare  NE, %2, %4,  SIGNED : (tensor<16384xi64>, tensor<16384xi64>) -> tensor<16384xi1>\n    %6 = stablehlo.broadcast_in_dim %arg1, dims = [] : (tensor<i64>) -> tensor<16384xi64>\n    %7 = stablehlo.remainder %arg0, %6 : tensor<16384xi64>\n    %c = stablehlo.constant dense<0> : tensor<i64>\n    %8 = stablehlo.broadcast_in_dim %c, dims = [] : (tensor<i64>) -> tensor<16384xi64>\n    %9 = stablehlo.compare  NE, %7, %8,  SIGNED : (tensor<16384xi64>, tensor<16384xi64>) -> tensor<16384xi1>\n    %10 = stablehlo.and %5, %9 : tensor<16384xi1>\n    %c_0 = stablehlo.constant dense<1> : tensor<i64>\n    %11 = stablehlo.broadcast_in_dim %c_0, dims = [] : (tensor<i64>) -> tensor<16384xi64>\n    %12 = stablehlo.subtract %1, %11 : tensor<16384xi64>\n    %13 = call @_where_3(%10, %12, %1) : (tensor<16384xi1>, tensor<16384xi64>, tensor<16384xi64>) -> tensor<16384xi64>\n    return %13 : tensor<16384xi64>\n  }\n  func.func private @_where_3(%arg0: tensor<16384xi1>, %arg1: tensor<16384xi64>, %arg2: tensor<16384xi64>) -> tensor<16384xi64> {\n    %0 = stablehlo.select %arg0, %arg1, %arg2 : tensor<16384xi1>, tensor<16384xi64>\n    return %0 : tensor<16384xi64>\n  }\n  func.func private @_flip_4(%arg0: tensor<3x16384xi64>) -> tensor<3x16384xi64> {\n    %0 = stablehlo.reverse %arg0, dims = [0] : tensor<3x16384xi64>\n    return %0 : tensor<3x16384xi64>\n  }\n  func.func private @_take_5(%arg0: tensor<18xf32>, %arg1: tensor<3x16384xi64>) -> tensor<3x16384xf32> {\n    %0 = stablehlo.broadcast_in_dim %arg1, dims = [0, 1] : (tensor<3x16384xi64>) -> tensor<3x16384x1xi64>\n    %1 = \"stablehlo.gather\"(%arg0, %0) <{dimension_numbers = #stablehlo.gather<collapsed_slice_dims = [0], start_index_map = [0], index_vector_dim = 2>, indices_are_sorted = false, slice_sizes = array<i64: 1>}> : (tensor<18xf32>, tensor<3x16384x1xi64>) -> tensor<3x16384xf32>\n    return %1 : tensor<3x16384xf32>\n  }\n  func.func private @_where_6(%arg0: tensor<16384xi1>, %arg1: tensor<16384xf32>, %arg2: tensor<i64>) -> tensor<16384xf32> {\n    %0 = stablehlo.convert %arg2 : (tensor<i64>) -> tensor<f32>\n    %1 = stablehlo.broadcast_in_dim %0, dims = [] : (tensor<f32>) -> tensor<16384xf32>\n    %2 = stablehlo.select %arg0, %arg1, %1 : tensor<16384xi1>, tensor<16384xf32>\n    return %2 : tensor<16384xf32>\n  }\n}\n"}
